model.pth (torch, 77583 bytes, 8 tensors)

conv1.weight f8 [10, 1, 5, 5]
-0.07710417117636045 0.05279328306350994 -0.012217816514766857 0.04913125822813445 -0.11874007602139951 0.11089508993897382 0.07532556053254943 -0.18690499810425842
0.051230160919245954 -0.1245831761680926 -0.01298898926549194 0.02009453414048591 -0.14030223418151178 0.03475642971227559 -0.1964854608330111 -0.1206784122263846
-0.13534005812601524 -0.10177060916843093 -0.06429771593087634 0.1764714468776585 0.07370134768354564 0.14685816800542428 -0.0653617492226098 0.18326555904577796
-0.0620572149175167 -0.1727610117068031 -0.09661041513398279 0.11758285268893166 0.022821917483346676 -0.15948742760804122 0.10836983207731396 -0.08599376213028638
-0.1652339005648535 -0.0889169253862682 0.14101754600793126 -0.13017438829618855 -0.17290040003422658 0.015735800025957647 -0.11556152353764633 -0.1788666027951803
-0.09511413278812905 0.16321676899098347 -0.1474278221869572 0.025223045313000313 -0.13328647984515737 -0.16063419732720993 -0.047441307554989 0.13033869317255214
-0.08154261042922864 -0.15075618138184504 -0.10041582948270322 -0.17225612453793224 -0.04182563480661384 -0.04939974276288482 0.11867558101490334 -0.04413305882416117
-0.0573794839079689 -0.13385401859107893 -0.07715224515956795 0.00016430745860772077 0.03947213603739648 0.07906770850280984 0.18345290760702074 -0.13238032104089129
-0.1609525282945584 -0.09947906556560898 -0.0377044230255459 0.17017104056645865 -0.02979285984289658 -0.19491455005540975 -0.18808898590338394 -0.036913767853545346
-0.14085707075714243 0.02501545235140818 0.15214453694447674 0.05139119631033942 0.1635643997628229 -0.15388536400690556 -0.105233637595664 -0.1218922999246243
0.007101908649721364 0.023366632041454193 -0.098891360364044 0.10397113934745997 0.09200219779033615 -0.16555170748784231 0.15920176322731766 0.04850298659279874
0.042996978037484285 0.06441296939772877 0.06908623030123591 -0.009655002548960097 -0.19426551647464677 -0.017298549305382462 0.022676731136358153 0.053021395886477966
0.025578284209927086 0.10531198634209583 0.0013156268175932764 -0.021148409929921144 -0.07828473304197285 0.04015129471937733 0.19484397116353375 -0.0771048574033703
0.17529803371342795 0.11579779348855752 0.01990740851177527 0.16038079246464773 -0.019601524666585282 0.025728323892735626 0.1296802034827169 0.03958834278176185
0.10727983010429591 0.19563655536246727 -0.18747027667467345 -0.04217432630859695 -0.008469692994130681 -0.1334536514078407 0.06947967443323014 0.10772220640029548
0.11313898510271489 -0.1571791698140721 0.12748700593515916 0.15413617955563313 -0.17551956204480088 0.05361837546709017 0.18437360251057747 -0.1233120832085484
-0.06747565318378182 -0.056453887599904974 -0.10466651942892213 -0.11804770084669622 0.10508254568363028 -0.1461761429200463 -0.005072212864050267 -0.08927018733127239
0.09561690028472117 -0.015524826948018024 -0.03194249731879093 0.166243851126008 0.03470673430261583 -0.011886560014416897 -0.055352521744199835 -0.04768528774061557
-0.15165287230950142 0.12507515910621397 0.12015887347608349 0.1910410292190153 -0.13380549248950752 0.17066203001923735 0.1309137690449804 -0.01731287913725201
0.0024487541552189428 -0.14338038732112657 0.1280081051368445 -0.011756742402391121 0.15039310656168073 0.174759647272698 -0.190214809231489 -0.14973592371301586
-0.08006549167442253 0.12433701006489688 -0.024907354718150067 0.029525626487110143 -0.0964594769848396 -0.06973014221395 -0.11019711050540554 -0.14605101864085568
0.08712047677875975 0.12913524061264242 0.025214950545886464 0.05716092864199518 0.038703200006274495 -0.05471798718183242 0.11019987690808221 -0.11103647877446887
0.09040045236927449 0.052417733176925156 0.18466957942400128 0.05868661510700681 -0.181981632233722 0.19362640656907304 0.038126691694809485 0.1118704262608544
0.1850435573546527 -0.17804212237830289 0.07134276268309904 -0.0705668529854134 0.13039331498315876 0.07278841637222022 -0.08687261697779748 0.06167537205241222
-0.028345967673373433 -0.1528932328050704 -0.19603511937871557 -0.02513632024260078 -0.12252888035970533 0.121055368813482 -0.11487788859913528 0.07055851943357659
0.08895579363820205 -0.1701177584301364 0.015201746409663276 0.09469579200958426 0.14496048926652563 0.05136815110609085 0.17039490808275712 -0.08139106442373936
0.034254412474134334 -0.08907587016442166 0.02094833234497654 0.08446289705910093 0.07580050147741502 0.11699302704458582 -0.10121440924111619 -0.08247875386124584
0.13722090849827473 0.007279900294082663 0.10586087239642118 -0.15435990506027095 -0.09436002799289223 -0.13995512940086763 -0.1736537367599998 -0.04744591829239989
0.023474221786790504 -0.026421496372590253 -0.015804027979025904 0.19390842234295272 0.14530377230980995 -0.07610960243566005 0.19570079678973712 0.12938499533142378
0.19731939596424936 0.002916333861758336 -0.12885419236689286 0.16490382527195074 0.04509241030962936 -0.12901478155608734 0.1209830774703122 0.04442496071422883
-0.04702136598595659 0.02088679426562967 0.10680692922188625 0.09557616155535334 -0.16932554021427548 -0.11510863182631471 -0.1682160542986741 0.07667456525569903
0.030666979644955742 -0.0948078280446211
00000000: 7e70 9655 19bd b3bf 0f99 69a0 b807 ab3f
00000010: 8e28 e092 a705 89bf be32 9a76 bb27 a93f
00000020: f388 3ce7 bf65 bebf c22a 93e0 9e63 bc3f
00000030: 7648 0a33 8948 b33f ac8a 28c3 80ec c7bf
00000040: d417 6ff3 d63a aa3f 6b15 46db aee4 bfbf
00000050: 70ba d3a0 f899 8abf 03d3 d85b a993 943f
00000060: 04c3 ae71 6cf5 c1bf a640 e141 98cb a13f
00000070: 2869 3582 6f26 c9bf 8d74 d8c9 c7e4 bebf
00000080: 7cb7 beb1 d252 c1bf 5f89 127e a30d babf
00000090: cb6f 21ab d075 b0bf 5938 82ca 9d96 c63f
000000a0: f8d1 f86d 17de b23f 34ec 5d9a 3fcc c23f
000000b0: d509 522f 8cbb b0bf dad9 4aef 3e75 c73f
000000c0: 6068 1a99 f6c5 afbf e3fc a667 081d c6bf
000000d0: 9d14 74cd 75bb b8bf 898d deea e819 be3f
000000e0: 1356 e4f4 a05e 973f eb8f d982 156a c4bf
000000f0: a623 a514 20be bb3f 0d74 02ec af03 b6bf
00000100: 7eeb 8e6b 6226 c5bf fb4a 9876 42c3 b6bf
00000110: 2814 22ea dc0c c23f c824 41ea 8da9 c0bf
00000120: 8460 cead 9921 c6bf e097 f3a9 0b1d 903f
00000130: ed26 45a4 7095 bdbf c40b add0 19e5 c6bf
00000140: de60 b659 6659 b8bf ccce 7c7e 49e4 c43f
00000150: 4220 6835 eade c2bf 5642 e6ea 11d4 993f
00000160: 7f8a f707 880f c1bf abdd 1150 a98f c4bf
00000170: 3237 db20 3a4a a8bf ba2c 4a34 f0ae c03f
00000180: 3a25 06fd f9df b4bf 2239 5a82 fa4b c3bf
00000190: 1801 a10f dab4 b9bf 2b8b b61a 7d0c c6bf
000001a0: 11f8 416b 2b6a a5bf cede 314f ec4a a9bf
000001b0: 7df5 4adb 8561 be3f 8ef9 a4b8 9b98 a6bf
000001c0: 0432 b1fd d760 adbf d4b7 24e4 2022 c1bf
000001d0: 36f8 c5e1 3fc0 b3bf 95fd 8952 3e89 253f
000001e0: 0a8c c41a b135 a43f 5671 3006 c83d b43f
000001f0: 259e 4387 627b c73f 0597 c09e d6f1 c0bf
00000200: 03e8 9daa 179a c4bf 9cad 3dc5 7577 b9bf
00000210: 8258 9e7f fe4d a3bf 06c8 fa26 2ac8 c53f
00000220: 9ddc b7fa 0482 9ebf 3a53 00c1 f5f2 c8bf
00000230: f3ae 98c5 4c13 c8bf 7afe 6783 5ce6 a2bf
00000240: f2f8 27c0 9a07 c2bf 92cc f996 a69d 993f
00000250: 1186 38e1 7879 c33f 1413 e966 f24f aa3f
00000260: 80b6 e2a1 adef c43f 4811 dffe 83b2 c3bf
00000270: 2399 e977 97f0 babf ec7b cf71 5534 bfbf
00000280: 7058 3c16 e416 7d3f 262b be21 6ced 973f
00000290: 60da 9eb6 f150 b9bf aaa6 3943 da9d ba3f
000002a0: 096c abbe 748d b73f e086 ba60 cc30 c5bf
000002b0: 4e70 432f b960 c43f 924a 592a 62d5 a83f
000002c0: f4e2 fe2c b303 a63f e761 004d 5e7d b03f
000002d0: 656b bf9b a2af b13f f14e 8681 00c6 83bf
000002e0: 61e4 ff43 b1dd c8bf a7b2 23fe b5b6 91bf
000002f0: e080 71aa 9138 973f b731 a4d2 9e25 ab3f
00000300: 117f ad98 3131 9a3f 5952 37f1 b9f5 ba3f
00000310: d87e f089 238e 553f d7af 0bc4 eda7 95bf
00000320: 3bfd 30e0 770a b4bf d76e 6ce3 b58e a43f
00000330: b22d fcb1 a5f0 c83f 1b04 e9d8 24bd b3bf
00000340: 7617 ed7c 2a70 c63f 1579 fb97 eca4 bd3f
00000350: d655 0692 9b62 943f a367 4599 5b87 c43f
00000360: c431 940d 6c12 94bf e6ff cc96 8658 9a3f
00000370: 6fcd 7264 5c99 c03f c4db 195b ec44 a43f
00000380: d381 d1e1 b076 bb3f b889 975f 9e0a c93f
00000390: f917 a5a9 06ff c7bf ded7 7390 df97 a5bf
000003a0: b8ea 55f3 8e58 81bf fc0a 2a5e 0215 c1bf
000003b0: 6a6d 6d81 6bc9 b13f a6cf 8ab9 ae93 bb3f
000003c0: ee35 eb30 adf6 bc3f 1860 fb70 721e c4bf
000003d0: 1807 9484 7e51 c03f aa31 29fd bbba c33f
000003e0: 6f34 65cd 6c77 c6bf d40c 3122 de73 ab3f
000003f0: 45aa 83e0 8d99 c73f a314 9574 6191 bfbf
00000400: 4a59 b39b 1546 b1bf 7d82 f221 86e7 acbf
00000410: 48f1 eecd 6ccb babf 4e2a 81c6 5f38 bebf
00000420: 4774 1791 b0e6 ba3f c704 a65c e6b5 c2bf
00000430: 9e40 e9c5 99c6 74bf cb79 1837 69da b6bf
00000440: 02f3 aa63 597a b83f b472 2400 7bcb 8fbf
00000450: bd6d ac5a c45a a0bf 6fa7 df7f 7a47 c53f
00000460: 6fb7 8fc1 14c5 a13f 7dde 3014 fb57 88bf
00000470: 75f1 486d 2a57 acbf 654d b1be 346a a8bf
00000480: 80f6 747f 5c69 c3bf 969b f37a 7602 c03f
00000490: 436b e75f bbc2 be3f 0b4d 584e 0874 c83f
000004a0: fe40 22d3 8920 c1bf 0e01 cdde 40d8 c53f
000004b0: 0778 524a c8c1 c03f a6c1 c6a6 77ba 91bf
000004c0: f84b 67e0 680f 643f 784d 37dd 495a c2bf
000004d0: 41c4 97d0 9162 c03f c891 0141 eb13 88bf
000004e0: 25f6 1cd1 1440 c33f 902e d92c 865e c63f
000004f0: 9f9b 6e78 f558 c8bf da1e b1f7 8b2a c3bf
00000500: 4ea1 470c 2c7f b4bf 7341 e9df 8cd4 bf3f
00000510: 5afd c647 5081 99bf 6ccb 9f40 f73b 9e3f
00000520: c905 0a7b 91b1 b8bf 4fb6 5aa8 d5d9 b1bf
00000530: 9c02 bcb9 e035 bcbf 3813 4ebe ccb1 c2bf
00000540: a6a2 930e 874d b63f 3ea0 98e9 8087 c03f
00000550: f1fe dbaf f2d1 993f 20b2 407e 3244 ad3f
00000560: f313 8ee4 e7d0 a33f 82d8 e5fa fe03 acbf
00000570: 99eb 5723 0f36 bc3f e0d4 fffc e26c bcbf
00000580: 4e3a 78ea 7b24 b73f c760 7343 7fd6 aa3f
00000590: b398 18b6 40a3 c73f f3ef 3109 2c0c ae3f
000005a0: 0851 7593 2c4b c7bf ec96 ed05 c0c8 c83f
000005b0: b925 de7b 5785 a33f 2711 2e4e 8aa3 bc3f
000005c0: e73c 96dd 81af c73f 496e 7692 15ca c6bf
000005d0: 29bb 87f0 8443 b23f 8605 c155 ab10 b2bf
000005e0: ec1e bc67 bab0 c03f 38a8 d8fb 42a2 b23f
000005f0: 496b d6a8 483d b6bf 8c13 de13 ea93 af3f
00000600: 2ebf 85b0 b906 9dbf 0cb8 5665 0192 c3bf
00000610: 51ad 4cc5 ad17 c9bf 95f6 88e5 55bd 99bf
00000620: d0de f57d 0d5e bfbf b822 0f12 7cfd be3f
00000630: f01a 9126 a368 bdbf 57e0 6b85 1f10 b23f
00000640: d83e 7790 cec5 b63f d38f 7630 6bc6 c5bf
00000650: 276a 5fdd 1722 8f3f dbfe bfc1 fb3d b83f
00000660: 4d52 4eb8 108e c23f c300 1d22 ed4c aa3f
00000670: 3768 cf16 80cf c53f 8af7 e277 0bd6 b4bf
00000680: 55e4 a35a cb89 a13f 010c 381d adcd b6bf
00000690: 6a45 4fc9 7a73 953f f820 9844 5c9f b53f
000006a0: 70ab dd62 a967 b33f f13b 0449 41f3 bd3f
000006b0: fc15 9301 30e9 b9bf 1aea 72de 531d b5bf
000006c0: 78eb 2969 7490 c13f 0c4d e65a 87d1 7d3f
000006d0: 6160 deb8 b219 bb3f 6b15 06bc 10c2 c3bf
000006e0: 3074 4792 fa27 b8bf 0893 d7b7 0cea c1bf
000006f0: aa2f 1b20 493a c6bf e501 cad6 d44a a8bf
00000700: 8646 7e5b a009 983f 189e 539b 3c0e 9bbf
00000710: 7d8b 425d ee2e 90bf 55e3 30be fdd1 c83f
00000720: 1c2d 0763 5099 c23f b36a 5f3d eb7b b3bf
00000730: 0aac 0145 b90c c93f 6c52 c501 b08f c03f
00000740: e636 4410 c341 c93f 9a5d efd1 fee3 673f
00000750: c78a 154f 4b7e c0bf 36a0 438c 911b c53f
00000760: 8ac4 2737 5a16 a73f 07f3 bd6d 8e83 c0bf
00000770: 9ebb 1a39 bff8 be3f bc92 c952 debe a63f
00000780: baf0 3e3a 2f13 a8bf 8019 2809 5963 953f
00000790: 1e83 feeb b257 bb3f fa4e 28e8 ad77 b83f
000007a0: 3886 cc94 75ac c5bf 696b 2e61 c277 bdbf
000007b0: defe ef89 1a88 c5bf 8f4f 35be f1a0 b33f
000007c0: 5198 912a 2a67 9f3f 9a3f db68 5345 b8bf

conv1.bias f8 [10]
0.172308608816239 -0.05190226436255085 0.18997896170591252 0.12418080283840122 0.03735819413112326 -0.03625363586917065 -0.1913029504963453 -0.12219257143721501
0.15330852283221374 -0.009268141073737858
00000000: 34ae d75f 350e c63f 9f0e 0d00 ef92 aabf
00000010: 2b3b ba09 3b51 c83f 8c61 fb26 50ca bf3f
00000020: 2cc4 0ffc 9c20 a33f d39e d628 d68f a2bf
00000030: 494b 0176 9d7c c8bf 4411 232a 0348 bfbf
00000040: 3897 e119 9d9f c33f 818b 73d6 2cfb 82bf

conv2.weight f8 [20, 10, 5, 5]
0.056335649162679864 -0.016945586682159203 -0.00091071851046952 0.0633533696384294 0.03954257997835884 0.02654372266143065 -0.030962229100826993 0.006147759457776553
0.024498752017145523 0.027344484428209394 -0.030302331831911115 -0.022448911355874086 0.03460705672252019 0.05433534778948021 -0.058291974036497086 0.005016512116299395
-0.01896466208532001 0.035003651955738985 0.03668455448295731 -0.009706601376418888 -0.00725256509327832 -0.019079246700682208 -0.01864314007528781 0.001487187898659669
-0.0052356057008667665 0.018896241667629234 -0.03765004673933497 0.05946223679875551 -0.061251142846262506 0.05198440244752835 -0.0600157494238896 -0.029303940100418823
0.028717524189644322 0.04193661766528019 -0.005998692810835359 0.056750668123649546 0.047550777190063925 -0.048841587851401046 -0.022900667514912543 0.013229386297694434
-0.013705429111478552 -0.0007116966686211864 -0.038757750362782534 0.03557971150108284 0.01845646295972987 0.010800540148682501 0.010162303787469608 0.020456114323291016
-0.005914238386540089 0.03725085590087608 -0.033232164038146314 -0.04297006429740178 0.018881324067897238 -0.018053457162620627 0.02625804157301876 0.0202467293140861
-0.051145586632701426 -0.021939602114551378 0.06124885152047219 0.0590414434491858 0.056481382942459094 -0.06101937873017324 -0.04278797370011589 -0.03251293061446674
-0.034640757735814744 -0.012295621622394556 0.021506849624596446 -0.05714399750655463 -0.03153858552030367 -0.005499087900025265 -0.06137084623124447 0.01696270327133131
-0.0006644817349983299 0.008636847864913956 0.01675324833707641 0.02438087240009239 -0.03449987027202832 0.008933560300419184 0.0643853029208309 0.01615502404133868
0.05247424180114305 -0.012707966582009891 0.010808754709984896 0.005415606975983752 0.06098319369554865 0.06084324803157399 0.01023135963130091 -0.027571010640642282
0.04478546922199336 0.029220439122804365 -0.026828635895981154 0.04413377506147871 -0.05444628542802568 0.013723078911047567 -0.008731406918552276 -0.006370083633083287
-0.04342820393677648 0.008971044794784973 -0.01211416083416069 -0.05618896086384038 -0.013541954978390986 0.057567607110872034 0.004151275139400763 0.04021550162640458
-0.03260677684850517 -0.008388203161717438 -0.018548856369976788 0.04287166452048567 -0.0076367267023413786 0.05839521355010853 -0.011950976716852581 -0.060134196864356296
-0.03618574614595393 -0.004046391759245788 0.05128064389581965 -0.01473394775233553 -0.038286725595011485 -0.017347418691281556 0.031012242510907298 0.034143834203119894
0.0241479566254348 -0.03128999530742971 0.025111915478868773 0.04945636767362173 -0.05806671392655799 -0.0005289366439942274 0.024659603299435277 0.041306325464979456
-0.011849137495318842 -0.027249280242529605 -0.029646646238270014 0.04052744734616577 -0.04315667681038035 -0.011727532238087663 0.0025803516243801884 0.05975463003219384
-0.007876073797604691 0.018068481619299116 -0.03150713891166164 -0.05439152640788125 -0.018925004803519177 0.026131497661538886 0.029656895898207514 -0.019274694093076142
0.01706491112248523 0.05653329988284969 0.0023701263639369754 -0.043892246315395685 -0.003449764993242451 -0.04369751935078875 0.04557106989585056 -0.031753419491075595
0.03170926159535656 0.061330815664244843 -0.041259928794245046 0.05708653948357726 0.05418500839139243 0.06221341656080861 -0.011354026441633922 0.025484637991337857
0.012937951526555984 -0.03904191674755737 -0.021823687966800297 -0.03550154665523491 0.027986390318064422 -0.06032872977089428 -0.050438799988536384 0.04850777294560921
-0.05365738380329364 0.03397041899863846 -0.03911198622927006 -0.051438201640366325 0.03152391926757887 -0.035034030603371576 0.04121242779135139 0.006979516493747085
0.027541211185890684 0.02239887556828269 0.009730152932511556 -0.00043925535076602294 -0.06268650848588896 -0.033341019810788894 -0.028330218459433 0.011665057556275334
-0.0167117025750685 -0.036247302423507856 0.02595894357099277 -0.018085620490967548 -0.05027873206412244 0.039962290760698876 -0.039695238696305854 -0.05298986919520878
-0.013309033937125792 -0.008753042231385313 -0.04675820174258237 0.05277990207767829 -0.047455078106790706 0.041129818362548275 0.0529903298498362 -0.017498177537553658
0.052898998607735774 0.046470283121503364 0.029771403323603077 -0.05773497430486972 0.047319628095031256 0.01308957137895711 -0.06246480504896453 0.021717860115516015
-0.06354759432805207 -0.0569752651786118 0.017354454004450882 -0.007441784681605072 -0.010693366327963237 -0.051776424136434046 -0.030584118087488284 -0.024347887007125354
-0.043229188397635475 0.04614573857512776 0.012839239857758736 0.06249491959518576 0.03181167957238462 0.032811161841008324 -0.05335256240982721 0.03145622515797169
0.003263997722008577 0.02493818147587342 -0.0005606356094819922 -0.049511642504969706 0.02606817737421806 -0.012364005506642078 -0.062493126836377554 -0.039271564039389736
0.05490511397175028 0.04580958598205412 -0.018602316633270208 0.059519097357219726 -0.05867968764918579 -0.012308329650726467 -0.016146791227665845 -0.0144163628698301
0.02228672518890981 -0.04682791273376197 0.020552624219029633 0.00415153539943123 0.04489392002024485 -0.038143315855997346 -0.03350763333600072 -0.01615015564057563
-0.028797380069743972 0.042367471088669416 0.05825106959261852 -0.05391511631568945 0.018151808094738292 0.052663147573139585 0.059343721004164754 -0.019467894594373994
00000000: 015a 81b5 06d8 ac3f a814 7212 2f5a 91bf
00000010: 8c2f f21b a9d7 4dbf 7f3e b02a ed37 b03f
00000020: 9def 9ccf ec3e a43f 37d1 fa12 472e 9b3f
00000030: 18e5 9805 90b4 9fbf ed85 099d 642e 793f
00000040: b168 d36a 3316 993f 8a6c 6149 3100 9c3f
00000050: 01a7 d710 9307 9fbf f5c8 6af0 d8fc 96bf
00000060: 7107 ab21 04b8 a13f ac92 8bbb d7d1 ab3f
00000070: 5d4a 3614 72d8 adbf 8901 acb7 318c 743f
00000080: a59b beed 786b 93bf 14eb c7a8 ffeb a13f
00000090: 6696 8b63 51c8 a23f 0679 bcfb 0de1 83bf
000000a0: 8230 349e ddb4 7dbf 8a6d 7292 8289 93bf
000000b0: 8924 acf3 2f17 93bf 63e6 d0d8 b75d 583f
000000c0: 6ada 2834 ee71 75bf 774b eb4f 8959 933f
000000d0: d76a e0ee dd46 a3bf 709a cb94 d571 ae3f
000000e0: 9b11 bc4e 4f5c afbf d216 d418 b39d aa3f
000000f0: c883 0a62 62ba aebf 633f 8021 da01 9ebf
00000100: 58cf dd6c 2068 9d3f da24 c162 b778 a53f
00000110: 3284 0fd7 1592 78bf d904 3c6f 6c0e ad3f
00000120: ac85 dc51 9358 a83f 2351 03bd c301 a9bf
00000130: f0e9 21c8 4573 97bf 803e f52b 0218 8b3f
00000140: c7d7 7d8e 9711 8cbf 9699 4cf5 2452 47bf
00000150: 44a3 8c4c 0ed8 a3bf 4eb6 9802 8137 a23f
00000160: 335c 3f43 40e6 923f 4ce7 bdf5 971e 863f
00000170: f484 5a53 f9cf 843f 6c4b 1698 72f2 943f
00000180: 3a0a 3747 8739 78bf 323e af4f 8b12 a33f
00000190: de33 7063 ce03 a1bf 1d8d ba19 2c00 a6bf
000001a0: e5d6 8135 a055 933f de6d 5f00 9b7c 92bf
000001b0: 92a3 4057 63e3 9a3f 5d15 0501 8fbb 943f
000001c0: f228 d81b c12f aabf a2e9 46c6 5577 96bf
000001d0: ad5e 656c 025c af3f 2c1e 7219 ae3a ae3f
000001e0: a234 24b9 20eb ac3f 6cfc 2298 ee3d afbf
000001f0: 9080 6827 4ee8 a5bf 665c 5feb 88a5 a0bf
00000200: ddff 2af3 6ebc a1bf 5e74 0466 722e 89bf
00000210: 764b 1c3f e405 963f 7f1e e860 fa41 adbf
00000220: 045d be52 d325 a0bf 63d7 032b 3686 76bf
00000230: 9369 fbe2 ff6b afbf ff5e 35bf ab5e 913f
00000240: d5a7 09a9 13c6 45bf 1471 f618 32b0 813f
00000250: ad89 d676 c327 913f ede5 6ca6 4cf7 983f
00000260: a6b7 118d f7a9 a1bf d9fd 9d2a c24b 823f
00000270: 6955 6322 8e7b b03f 92cf b14f f18a 903f
00000280: 252c d660 e7dd aa3f 3b78 f266 a206 8abf
00000290: 8941 eb7f e622 863f 7cf1 98ed ac2e 763f
000002a0: f657 0e6d 3039 af3f e9bf f4a0 d826 af3f
000002b0: 2896 14d8 2df4 843f 24b0 1334 933b 9cbf
000002c0: c4f8 49fb 1eee a63f 00fa a079 f6eb 9d3f
000002d0: dcff 1347 f778 9bbf 1a7e 13c1 b398 a63f
000002e0: 84a6 9a2e 62e0 abbf deac fc78 d81a 8c3f
000002f0: 1a56 4e99 c5e1 81bf c9b0 074e 8417 7abf
00000300: 8fd3 43b7 383c a6bf d152 0940 695f 823f
00000310: 2c44 cf24 4fcf 88bf dde2 9caa ccc4 acbf
00000320: d77a 0c6e e2bb 8bbf cd49 b35b 8079 ad3f
00000330: aee5 5d6f ed00 713f 2827 8e50 2097 a43f
00000340: 1a75 62e0 d5b1 a0bf 56a5 0392 d52d 81bf
00000350: 14f2 f2ad 78fe 92bf 86c5 145a 46f3 a53f
00000360: f3f2 f536 b047 7fbf 2a9d e138 fae5 ad3f
00000370: 61ad 3bf1 c079 88bf 62a9 ced1 e8c9 aebf
00000380: 2f74 8e28 f086 a2bf 603e 5d04 f392 70bf
00000390: 8f96 e6e0 7441 aa3f 53e5 e5fd d42c 8ebf
000003a0: 455e 9a54 519a a3bf e6d9 cb8f 85c3 91bf
000003b0: 649b 705d acc1 9f3f 585f 86f6 4c7b a13f
000003c0: c4c8 e2ef 3dba 983f a026 1305 3e05 a0bf
000003d0: 33fa e21e f0b6 993f a26c 7953 5852 a93f
000003e0: 78fc 999a ebba adbf 07d8 36cb 0a55 41bf
000003f0: 3e4a d0f6 5d40 993f bde3 fa49 1a26 a53f
00000400: dbc1 3950 5c44 88bf a3c0 ec3d 3ce7 9bbf
00000410: 7028 1ec0 b05b 9ebf b260 e279 03c0 a43f
00000420: 3c5e 02c7 a118 a6bf 8a29 67bb 9a04 88bf
00000430: f136 d8ba 6323 653f 41b3 8bab 2898 ae3f
00000440: 8281 0dbb 5421 80bf 8ab4 9246 8b80 923f
00000450: baa6 6e26 b421 a0bf d0e6 33c6 34d9 abbf
00000460: 74be d492 1361 93bf e140 681f 37c2 9a3f
00000470: 3d49 ef97 605e 9e3f 81a6 14d3 bebc 93bf
00000480: c78b b8cc 7679 913f 4c7b 43c4 eef1 ac3f
00000490: 1a4f 0ee7 836a 633f c1f8 f164 0b79 a6bf
000004a0: f844 657a ae42 6cbf 6851 0e71 855f a6bf
000004b0: 6d5c b15d 1755 a73f 632c 80f4 fb41 a0bf
000004c0: 2c92 1043 323c a03f b5a5 07af c066 af3f
000004d0: e6f6 9c79 0520 a5bf b55f 3f68 723a ad3f
000004e0: c5f3 f22d 23be ab3f e38f 00db 6fda af3f
000004f0: a538 f5a1 c740 87bf 4a8d e41a a518 9a3f
00000500: 8967 7875 367f 8a3f 2a34 3557 4dfd a3bf
00000510: f3ce 61e8 f258 96bf 07ed ae3b 422d a2bf
00000520: 0cc2 98dc 76a8 9c3f da1b c042 68e3 aebf
00000530: 6eed cc48 1dd3 a9bf 486e cec4 02d6 a83f
00000540: 9e85 3f09 fb78 abbf f9d9 421d 9264 a13f
00000550: 94fe 787b 7c06 a4bf 47f0 9ea3 1b56 aabf
00000560: ba8c 9734 e723 a03f d988 60ff faef a1bf
00000570: 73f0 1a9b cb19 a53f 9a11 52b1 8d96 7c3f
00000580: 5baf 5765 c333 9c3f 02bd 2118 bbef 963f
00000590: 7eae 0a05 67ed 833f b8e5 ba5d 7bc9 3cbf
000005a0: efe9 d817 390c b0bf a6be 67fb 1212 a1bf
000005b0: cd52 16c7 9802 9dbf 7e68 ae85 d9e3 873f
000005c0: 44e3 1460 df1c 91bf f551 f4a4 018f a2bf
000005d0: b159 b436 fb94 9a3f 6a73 2572 0985 92bf
000005e0: 5bac cc4b 22be a9bf 5ce8 c7f7 ef75 a43f
000005f0: 3edd 0330 ef52 a4bf 33ec 6cf6 7c21 abbf
00000600: 80ae 024c c441 8bbf 8e94 fe70 1ded 81bf
00000610: 0ebb 9be6 b0f0 a7bf 6792 9ea2 f705 ab3f
00000620: 8dde fe30 084c a8bf 93df 83b1 f70e a53f
00000630: 3f29 6b6b 8c21 ab3f 5cb7 0dd1 0aeb 91bf
00000640: e7d2 05da 9315 ab3f 8045 7cf4 f3ca a73f
00000650: e40a 860e 657c 9e3f 0e1b f344 708f adbf
00000660: a70b 413e 473a a83f 6023 ee87 b4ce 8a3f
00000670: eb31 ac0d 63fb afbf 9fb0 bdeb 343d 963f
00000680: ace2 60b7 a744 b0bf 6a02 3fa9 dc2b adbf
00000690: da63 8eb1 5dc5 913f 1148 4ddd 467b 7ebf
000006a0: b94f 4d55 67e6 85bf a457 bd80 7082 aabf
000006b0: dfde d96b 7151 9fbf 2c71 b009 a7ee 98bf
000006c0: 030a cddc 2222 a6bf 3654 0f0c 6aa0 a73f
000006d0: 5549 5b9a 754b 8a3f 76aa a787 55ff af3f
000006e0: a0d7 c9d6 9e49 a03f c40e 1ae6 9fcc a03f
000006f0: df7f 6aed 0651 abbf 7742 9ec4 071b a03f
00000700: f33f 0c6f 19bd 6a3f 563e 7107 6589 993f
00000710: d90d c9cd f35e 42bf 5901 a90a 9759 a9bf
00000720: 1d85 27c5 9db1 9a3f 0384 63ba 4c52 89bf
00000730: e35a f95f 19ff afbf 8684 6c06 671b a4bf
00000740: a69c c8e9 851c ac3f f4be 45a3 5a74 a73f
00000750: ec67 4756 7c0c 93bf 61fd 4581 4979 ae3f
00000760: 4716 c996 430b aebf 79ca 8b0a 1c35 89bf
00000770: 465c 08d1 c888 90bf 59ee 6c78 5386 8dbf
00000780: b804 49cf 54d2 963f 9080 7603 d4f9 a7bf
00000790: ec88 7843 bf0b 953f e9c5 4c4c 3301 713f
000007a0: f268 8dfc 55fc a63f 1934 534c 8587 a3bf
000007b0: 0260 b09a e927 a1bf fbd1 3499 aa89 90bf
000007c0: 60ac 7076 0f7d 9dbf 3be9 7a6d 30b1 a53f
000007d0: 33f2 b68d 15d3 ad3f fffd ab1a c39a abbf
000007e0: 084b 8538 6396 923f 9ce6 0f01 aaf6 aa3f
000007f0: e225 dfd9 4c62 ae3f b453 6b4a 64ef 93bf

conv2.bias f8 [20]
-0.04591548127851653 -0.03705758934311623 0.05205125531326102 -0.03816095049047282 0.03139475393208416 0.00860738474767498 0.05406835835195849 -0.06031160758428031
0.05026280448044278 0.034234599088968275 -0.029237110765528464 -0.04458244400553923 -0.01466096944102946 0.020166862728315735 -0.03936007118033991 0.03389240255093912
-0.04360616547644956 -0.044833614145597375 -0.0184191627706222 -0.05204166789656839
00000000: 0152 f1e4 3b82 a7bf 6435 985c 36f9 a2bf
00000010: 1c89 924e 76a6 aa3f ab84 ae04 d589 a3bf
00000020: 54fc ce22 f912 a03f c47b f69f bfa0 813f
00000030: d679 bd0d d9ae ab3f 0c8f 49bc 29e1 aebf
00000040: c6c1 e5da 0bbc a93f fb23 f586 3287 a13f
00000050: fa17 454a 55f0 9dbf 8f86 f595 82d3 a6bf
00000060: 410b 3702 9206 8ebf ac2e 863f 9fa6 943f
00000070: e1bf f9d4 0027 a4bf 890b 1451 585a a13f
00000080: 4e29 401d 8c53 a6bf 1e9d 0875 6ef4 a6bf
00000090: aaca e016 79dc 92bf 9044 4a9b 34a5 aabf

fc1.weight f8 [50, 80]
0.1113928067927321 -0.0596556611695838 -0.05673230272412821 0.03144264190231135 0.08993053061205485 0.030710724417945378 -0.01638728375581883 0.0015908582230802124
0.00786623614432735 -0.10278411062386628 0.021004372300693637 0.01180049772408468 -0.00974575320280258 0.03006266658724624 0.011927227157034818 -0.0853892369194272
0.08451161717405786 0.010600698894017595 0.05253906286082324 0.008449059711006311 0.03938668211835424 -0.04453756629407418 -0.02020371161771558 0.09690505270779147
-0.07102876506160288 -0.029945277691137997 0.10229205972962847 -0.008470117654565214 -0.05580289918637712 -0.042777912038760114 0.09940428157229454 0.046041786508131545
-0.08009859503046415 -0.04199170978316155 0.01600068804711406 0.1004108584089627 -0.056912347776894516 -0.0684089382630692 -0.06518795589505345 -0.0776814206213795
0.10697890680486984 -0.09136728734795639 -0.11004921363814968 -0.07815105062161387 -0.0744198760001253 0.09958132560664446 -0.06491040776443334 0.033486739615079
0.029216087985785663 0.08943815275533334 0.09096563342056634 0.005516410949879732 0.09852757075405445 0.02201547394340299 -0.08190141448044497 -0.023209489272842762
-0.024364945468326602 0.10283476635009077 -0.04566862901094961 0.10080004527402962 -0.038171963656212504 0.06375450526949625 -0.09172211970146572 0.10337182073910742
-0.07560379611126304 0.04736010156147201 0.07897372292221748 -0.0006993293399203871 -0.012883870147846805 -0.05881690529934033 -0.07886556540843527 -0.03436102854604581
0.04943358969757311 0.007999195749861139 0.10568996178738149 0.013888754654458284 0.008665054443736015 0.03852506968771141 0.072023212600677 -0.06708326879726517
-0.10832242533481992 -0.06675790261096455 -0.07011156516278685 -0.09422589607951813 0.025296714886179347 -0.005010001877088025 -0.061943380605355355 -0.048103556332629825
0.10095291518072116 -0.05494001606415372 -0.0814812989140887 0.10171725598430653 -0.03208226770975396 0.06949687841116421 -0.026975970229993665 -0.07853013029906393
-0.057983275267515295 0.022852479662310715 -0.08292957372840089 0.04479714115069057 -0.09539405771960359 -0.04901853145309977 -0.054450589756458154 0.05993262015686926
0.003949899111192617 -0.05574822638679196 0.018446873509241627 0.09124854634530412 0.07597165793943578 0.08361018603137017 -0.06611856437656595 -0.043708993999235
0.10387412186575333 0.06439672538757767 -0.030867294708957663 0.041074609185183984 0.08018813395877053 -0.10170974268420967 -0.09848827480154046 -0.03996758368532407
-0.10596149253961211 -0.04434464270202737 -0.06401084505609636 0.036808157910687145 -0.08750490667447357 0.10012264863878369 0.01853684691112084 -0.09407708332539803
-0.007136497333789379 0.10884976039068922 -0.09817737858889398 0.04166195059729128 0.09973308868238574 0.040787447485675594 0.051453914853940144 -0.03383125970193135
-0.01683886679253483 -0.05961878567475653 -0.06530196341574543 -0.02174061458707506 0.027445296749321394 -0.073030736321659 0.050307998082331294 -0.089561160431681
0.08755003218535556 0.06369866136890816 0.009055498516752724 -0.05955218697323697 0.08849016849019872 -0.03249691584008749 -0.07524315405852566 -0.10274361785272554
-0.029576420860778812 -0.08655902385316729 0.044957280067971915 -0.011990849894715586 -0.09641189355313849 0.03592366734211125 -0.11150355816809905 -0.012554399463611471
-0.057657230561081685 0.0040765519813621845 0.07314592974803623 -0.03438807175832534 0.010288085060375665 0.04537837394185492 -0.06257854903785562 -0.06464226680786818
-0.056255589042254604 -0.04333060641336695 -0.013744674277118582 0.03331327086935618 0.08732029200943628 -0.00215976199827184 0.08431116934984333 -0.11317629738977597
0.05081207354425368 0.016734135865372368 0.03415615302459052 0.018355211339955553 -0.019511074156157035 0.038147029810923695 -0.07001176307695471 -0.06382622193311432
-0.06296078901574358 -0.1102065300435804 -0.08187708658202834 -0.004604097827869919 0.04531168205564977 -0.0752006119768258 0.08249665713503941 -0.09750399917300932
-0.11070665617211803 -0.104278586054614 -0.08263163703989503 -0.011955231069415517 0.10085109581495176 -0.026526237341675325 0.02018419663157232 0.03353684381139288
0.10864676174095919 -0.0031575796920594217 -0.06636486946225154 -0.06018338453665571 0.01930012280083222 0.08238283262471296 0.06330698107229611 -0.0009143877329643331
0.07533822543292681 -0.017689376594537863 -0.07911097285325559 -0.04311856222876061 0.09095572555327236 0.025501926261274527 0.026872727091377217 -0.07840044638266858
-0.061322675397693364 -0.0776431945262127 0.01763951104243437 0.012215092817053564 0.0564079717638594 0.07116867464753066 0.05890582677442713 0.05015763327773844
-0.0017164176149353444 -0.09887956982903919 -0.10115508201184885 0.0406275527854202 -0.017686747370490582 -0.013968554398643213 -0.06918753955338841 -0.00779382206218253
0.03243929343428805 -0.07066765795532298 -0.10513568648022402 0.010546824401244978 -0.04861018982864857 0.09901884200930088 -0.06830153221440484 -0.043957346831237504
0.098285269330307 -0.04992329036647454 0.0765744803410988 -0.01756229545591196 0.04331963849847911 -0.09905762136602984 -0.09786186453495735 -0.042473251897163174
0.07867550898980007 0.10311913875320694 -0.10695673694018773 0.08511883296189177 -0.011065838117232944 -0.06982038797151854 0.07264839666789374 -0.1072828394148069
00000000: df36 2f2e 3d84 bc3f c53e 7dd3 2f8b aebf
00000010: bf5f a731 040c adbf 2b2d 57fd 3f19 a03f
00000020: 1305 e4ef af05 b73f 33d2 0bd4 a172 9f3f
00000030: 11c0 34ff d3c7 90bf 56dd 9a02 8b10 5a3f
00000040: 7e28 dc57 2c1c 803f 408e ad39 0f50 babf
00000050: c2fe 6a90 2b82 953f 1367 69fe db2a 883f
00000060: 4255 3fda 94f5 83bf 6885 4a67 bfc8 9e3f
00000070: a248 9254 4d6d 883f 75d4 ffab 11dc b5bf
00000080: d007 e5a7 8da2 b53f 3c32 84b8 d1b5 853f
00000090: d3db 7f69 66e6 aa3f 8c33 2099 bd4d 813f
000000a0: 8b4b 31bf 7d2a a43f a85b 5abd a0cd a6bf
000000b0: 36a5 9f22 48b0 94bf 7f76 3200 c5ce b83f
000000c0: 54cd 03ef f02e b2bf c78c 6991 f9a9 9ebf
000000d0: 35e2 2dfb cf2f ba3f 149a 8ef2 c758 81bf
000000e0: 2b11 0e96 3292 acbf fd30 658a fce6 a5bf
000000f0: 1975 6f1a 8f72 b93f a58a 9afe c992 a73f
00000100: 2a84 1c6e 5781 b4bf 0c90 71f8 ef7f a5bf
00000110: 9cdf 80ff 7b62 903f c19f 07a9 86b4 b93f
00000120: 4774 e180 9d23 adbf 1b0e 9888 3f83 b1bf
00000130: 718f a96a 28b0 b0bf 785d 13f9 ede2 b3bf
00000140: 2db8 163a f862 bb3f d76d 15b7 d863 b7bf
00000150: 30c0 866d 2f2c bcbf 1060 910e b501 b4bf
00000160: 2dc9 9755 2e0d b3bf 80da c568 297e b93f
00000170: 0fad 84ee f79d b0bf 542c fe86 2c25 a13f
00000180: fcfd a979 d2ea 9d3f 8c4b 1935 6be5 b63f
00000190: fbeb 9914 8649 b73f e3bc ef49 6098 763f
000001a0: fd9a 2456 1a39 b93f a415 5f72 398b 963f
000001b0: 088d b0b8 7df7 b4bf 8cee 8875 3ac4 97bf
000001c0: 8936 d2cf 1ff3 98bf 8d8d 5d16 6153 ba3f
000001d0: 4341 1ce8 e061 a7bf 8f24 e321 08ce b93f
000001e0: d818 0e8f 468b a3bf daea 1a1b 3752 b03f
000001f0: 1106 70d0 197b b7bf 5e06 675d 9376 ba3f
00000200: f356 c037 c55a b3bf 46fb ae4e 953f a83f
00000210: f7bc 3135 9f37 b43f af95 7152 66ea 46bf
00000220: 5d82 72c7 db62 8abf 5cd9 6cd9 3f1d aebf
00000230: 09b4 35a0 8830 b4bf dc70 b9cb c497 a1bf
00000240: 0861 2606 5c4f a93f 24a1 1ee1 e161 803f
00000250: 546d 6451 7f0e bb3f 493d 2f18 b571 8c3f
00000260: 4a99 a1eb fbbe 813f f009 c5d4 8eb9 a33f
00000270: 2f3a acfe 1c70 b23f e4d0 977d 5e2c b1bf
00000280: 3688 3cba 04bb bbbf 7db1 76c0 0b17 b1bf
00000290: 120f 72df d4f2 b1bf 0f0b 1936 301f b8bf
000002a0: bf8d 87cc 61e7 993f 1d9b 7023 5e85 74bf
000002b0: 66af cef3 0ab7 afbf 6b35 8a82 07a1 a8bf
000002c0: 5216 23dd 0cd8 b93f 7879 7908 1921 acbf
000002d0: 1e55 125a f5db b4bf 8436 e45f 240a ba3f
000002e0: 0e98 3045 166d a0bf bd35 f323 8cca b13f
000002f0: 44ab a9b7 969f 9bbf cd95 62f5 8c1a b4bf
00000300: d956 fadd fbaf adbf 98e6 20f3 a366 973f
00000310: 45e2 085f df3a b5bf 329d 64a0 a6ef a63f
00000320: 6570 23b6 be6b b8bf a25f fafa f418 a9bf
00000330: 16f9 809c f2e0 abbf bc1e 1307 7daf ae3f
00000340: 20c6 14f8 c42d 703f 4a55 4812 088b acbf
00000350: d118 beb9 bce3 923f b151 5c92 105c b73f
00000360: 9cd4 45ea e072 b33f 8901 9e26 7a67 b53f
00000370: e9e3 a76f 25ed b0bf c019 8977 0661 a6bf
00000380: c36a 5094 7e97 ba3f ef56 82c5 4d7c b03f
00000390: 41f3 2915 ad9b 9fbf ebed 4a2e bb07 a53f
000003a0: e653 e1a4 3587 b43f bb64 8352 a609 babf
000003b0: 4ae4 4f0f 8736 b9bf 933f a891 a176 a4bf
000003c0: abcd 17d9 4a20 bbbf 08e7 504c 57b4 a6bf
000003d0: 22f2 1ac6 0363 b0bf a0a1 e7d4 84d8 a23f
000003e0: 9309 68b8 b866 b6bf d512 7e4d a3a1 b93f
000003f0: f052 04bd 52fb 923f db86 2f8c 6f15 b8bf
00000400: 6380 81ea 283b 7dbf bc31 0ef1 93dd bb3f
00000410: 310e 3f16 2722 b9bf 211a 9b16 b754 a53f
00000420: 514c 3892 1b88 b93f 499b 13a2 17e2 a43f
00000430: c201 19e3 2a58 aa3f 902a 01b4 5452 a1bf
00000440: 52da b338 353e 91bf 5f8f 667d 5a86 aebf
00000450: 0e37 3c25 a1b7 b0bf 34f1 95f2 2b43 96bf
00000460: 2191 deaf 9e1a 9c3f 07b5 1a70 24b2 b2bf
00000470: db4f fb4c f8c1 a93f bcbe 0bef 7aed b6bf
00000480: 24f6 ffcc ad69 b63f 63e1 6033 8e4e b03f
00000490: d3d2 d36f b08b 823f 0421 e9ce 9f7d aebf
000004a0: b6d4 aeab 4aa7 b63f 8c11 828d 6fa3 a0bf
000004b0: d0e3 eda5 2243 b3bf 76d8 8cde 674d babf
000004c0: 1bb1 5101 4849 9ebf 617f 9f70 bb28 b6bf
000004d0: abd5 37ff a304 a73f 5540 31a1 a88e 88bf
000004e0: e793 c129 73ae b8bf 3c04 c640 9664 a23f
000004f0: f538 b847 7f8b bcbf 7de2 eff8 1eb6 89bf
00000500: c88a 469f 3f85 adbf 31db 0b17 93b2 703f
00000510: c773 1a10 b1b9 b23f fc25 2637 509b a1bf
00000520: e873 fb66 eb11 853f 1b46 0d90 d53b a73f
00000530: 0e79 8cd5 2505 b0bf b50c e145 658c b0bf
00000540: b3b1 4e56 88cd acbf 212a ece2 6d2f a6bf
00000550: 0b7c 1df4 2a26 8cbf 9d37 d0e1 6f0e a13f
00000560: c22b 7566 9f5a b63f 0884 ca64 59b1 61bf
00000570: 538b 0bb3 6a95 b53f 78b1 f82f 1ff9 bcbf
00000580: e4a1 3a44 0a04 aa3f 900a 13d9 c022 913f
00000590: 7044 6550 ea7c a13f a244 aa61 b5cb 923f
000005a0: bc60 a405 b6fa 93bf e574 f4ea 0188 a33f
000005b0: cb35 c078 4aec b1bf 8478 d44f ea56 b0bf
000005c0: f3c2 c0c1 321e b0bf 01c3 57c2 7e36 bcbf
000005d0: cb5c 2991 e5f5 b4bf 4794 9219 bfdb 72bf
000005e0: 568d 1cc1 1733 a73f 1f64 14e9 5840 b3bf
000005f0: 31a0 6c3c 801e b53f 9f62 ada7 05f6 b8bf
00000600: 8671 b57b 4557 bcbf 9d16 c75c 00b2 babf
00000610: d587 b3d2 5827 b5bf f391 acf3 fb7b 88bf
00000620: af7d 4a9e 60d1 b93f 9545 79a7 b129 9bbf
00000630: 7bec b681 2aab 943f 7011 c3be bd2b a13f
00000640: ae64 7e30 46d0 bb3f ea8e 61b0 ecdd 69bf
00000650: fa94 f1bf 49fd b0bf 3eef b148 5bd0 aebf
00000660: 3314 f450 69c3 933f f4fe df93 0a17 b53f
00000670: 7d62 50e5 e234 b03f 9652 58b4 70f6 4dbf
00000680: 3a83 5fae 5d49 b33f 4636 d7f7 291d 92bf
00000690: 75d3 28e1 9d40 b4bf ba02 3fdd a213 a6bf
000006a0: 28a0 a2da df48 b73f 75d4 1b4d 2d1d 9a3f
000006b0: de14 0c30 8684 9b3f ac92 3439 0d12 b4bf
000006c0: b731 ac8a af65 afbf a73e 3fa5 6ce0 b3bf
000006d0: 4bc2 2d8c 1710 923f 3ab5 5501 3a04 893f
000006e0: 553f eb73 81e1 ac3f f25d 1c3a 1c38 b23f
000006f0: a07b 148f e728 ae3f 1b32 25e5 42ae a93f
00000700: e46b 6f61 2d1f 5cbf 7d84 a8e6 2b50 b9bf
00000710: a7a9 10a9 4ce5 b9bf 324e 0f75 22cd a43f
00000720: 5f90 1d86 791c 92bf 0a3d 84a2 8b9b 8cbf
00000730: 9829 ac4b 46b6 b1bf 31fd e22d 6aec 7fbf
00000740: bbac cf10 e29b a03f 2493 cd8f 4617 b2bf
00000750: e337 131f 2cea babf 783e 0acf 9299 853f
00000760: d9fe 214f 6fe3 a8bf 1724 1e80 4c59 b93f
00000770: b9a7 208f 357c b1bf 9c41 1ece 9381 a6bf
00000780: b7c4 7331 3929 b93f 7a8d dda6 8b8f a9bf
00000790: 5ff1 c598 629a b33f ead9 80b2 d9fb 91bf
000007a0: e442 40dd fd2d a63f 3bc8 2f1c d75b b9bf
000007b0: 7e06 b4a3 790d b9bf a9c7 b4d7 0dbf a5bf
000007c0: fb7a 1b02 1424 b43f d465 8910 0466 ba3f
000007d0: 1ab7 3e47 8461 bbbf b452 d80b 59ca b53f
000007e0: 42e0 87a6 afa9 86bf 2684 eeba bfdf b1bf
000007f0: e4a1 cbd7 1599 b23f d267 b55e e376 bbbf

fc1.bias f8 [50]
0.01894786961469105 -0.029419988855080924 0.03554684665626571 -0.05374559839196119 -0.06070728296657837 -0.04395475876901595 0.0789624796416511 -0.020371198034661402
-0.028437350279217843 0.07072775933124063 -0.08874168612904994 0.033215326126211364 -0.02530733087582414 0.0016530818847660979 -0.04676364532641657 -0.020692256393588765
0.030283855195628064 0.09485479695918976 -0.08320902419949096 0.07655388667476716 -0.057124307651138566 -0.09505236151673768 -0.044775071354244016 -0.07745320615012427
-0.056786811613129214 -0.11536930016337472 0.06218608435872203 -0.08011947390647257 -0.05622010383420066 0.013932094021877586 -0.0645799801317513 0.088155266785239
0.045307666205077854 0.047487509111126945 -0.09033074795107064 -0.09530174436862725 -0.014563044708725909 0.09848928282272314 0.09214804462095498 0.029616247669532518
0.02177650538099055 0.05793769296111849 -0.07974545656998022 0.0845805851584379 -0.04004043735295949 0.014344534430485048 -0.04451229423235302 0.03376882998954735
0.06951877830425678 0.003982996637767518
00000000: d7be 4b01 1267 933f a6ce ec07 4620 9ebf
00000010: 4dab ba3f 3233 a23f 187b cb06 8b84 abbf
00000020: b3e1 f065 0615 afbf 893e d5f6 3c81 a6bf
00000030: 6405 ac93 e236 b43f eb59 5bf5 2fdc 94bf
00000040: 708e bc45 ae1e 9dbf d73d 3fe5 361b b23f
00000050: ad56 b76f c6b7 b6bf 6048 e066 9901 a13f
00000060: dcc5 d739 2aea 99bf 10d6 7d28 8715 5b3f
00000070: f62c a38e 67f1 a7bf 48b1 f6d1 5930 95bf
00000080: 27e9 a51e bb02 9f3f f1f5 ce6a 6748 b83f
00000090: 213c abc5 2f4d b5bf 495a a617 0999 b33f
000000a0: 2729 56b2 653f adbf 9838 1f00 5a55 b8bf
000000b0: 97fb 4816 c2ec a6bf de97 622b f9d3 b3bf
000000c0: e9eb 7135 2913 adbf 9502 2aab d788 bdbf
000000d0: 588c 2cbd dad6 af3f 6176 33b8 b582 b4bf
000000e0: 96f4 b0a6 e1c8 acbf 4e95 8201 6e88 8c3f
000000f0: 5367 a446 5088 b0bf d010 d0f3 5791 b63f
00000100: eec0 3701 9132 a73f 0b9b 3365 4850 a83f
00000110: bfe7 4578 ea1f b7bf 3fa4 50f3 b165 b8bf
00000120: f086 08c6 3ad3 8dbf 35e7 baf8 9736 b93f
00000130: cb8f 09a6 0397 b73f befa aebc b853 9e3f
00000140: 29e7 ba89 944c 963f ee87 f260 02aa ad3f
00000150: d0ff f8bf 326a b4bf f7cc 21bf 12a7 b53f
00000160: 82a1 e521 2e80 a4bf dbcf 0ad2 aa60 8d3f
00000170: deea febf 50ca a6bf e2cb dbe8 254a a13f
00000180: ef4f 468f fbcb b13f bce3 c984 7950 703f

fc2.weight f8 [1, 50]
-0.10064600306504225 0.07745281167216507 0.12101958090403289 -0.06088730409659359 -0.012876903727865324 0.12940329123073832 -0.02047739967346151 -0.0743251707531346
-0.016772129838457522 -0.01014203891343899 0.04464406039675375 -0.011667491206530559 -0.027236271573067405 0.0089655048467797 -0.06718023014842756 0.08014507741974433
-0.017131868209005238 0.04813334705595408 0.0007347655684081423 -0.12313197655587263 0.07469930270406516 -0.05676522255640938 -0.05933376611984193 -0.06017365295064939
0.0019397554572240844 -0.12654593933637892 -0.050610006667803485 -0.08477145470249922 -0.02326781340379902 0.07405574155230939 -0.043719106120465874 -0.11308430682496266
0.09938007527192613 0.1177017099541312 0.06824677466735626 0.08981726581813335 -0.08883636052393697 0.06283761137827237 0.10665246266051157 -0.046898984449479084
0.08026650399692785 0.024135268673040777 -0.05609762097936925 0.028101566870614707 -0.031019769226298503 -0.13231107395078173 -0.08171115045158814 -0.0719651009247477
-0.04960521812261519 -0.0952675910372018
00000000: 6131 a3bb efc3 b9bf 7d7d 1d8d f2d3 b33f
00000010: 0290 28a6 23fb be3f 9f46 ace7 9e2c afbf
00000020: 0352 14c3 345f 8abf 2757 ea7b 4990 c03f
00000030: 7e59 9e07 07f8 94bf 1882 a771 f906 b3bf
00000040: b8cf 8f94 b62c 91bf 7476 956b 59c5 84bf
00000050: c3ba ba16 96db a63f c86f 4429 20e5 87bf
00000060: 0069 af3e d3e3 9bbf b754 dfb0 815c 823f
00000070: 28dd 6c3b b932 b1bf 4204 7446 6384 b43f
00000080: 1c4f b536 048b 91bf 3299 e71e efa4 a83f
00000090: a5bc 130b a913 483f 4a39 66c4 9385 bfbf
000000a0: fce0 2556 7e1f b33f 1221 dccc 5410 adbf
000000b0: 0904 11d2 fe60 aebf 44fe 01bf 14cf aebf
000000c0: 17a1 1090 ecc7 5f3f ac17 7247 a832 c0bf
000000d0: 4324 fa06 8ee9 a9bf 66e2 9401 95b3 b5bf
000000e0: e098 7986 84d3 97bf a556 0c2c 51f5 b23f
000000f0: a9d9 fec5 5962 a6bf 0b09 81d7 17f3 bcbf
00000100: a6bc 2afd f870 b93f 78af ef02 b321 be3f
00000110: 7ef7 40e1 9e78 b13f e215 4eab 43fe b63f
00000120: 995e 25cf fabd b6bf 7814 d42d 2016 b03f
00000130: 9a2d 2a67 934d bb3f 162d dac8 2403 a8bf
00000140: 0b8d a179 588c b43f 5006 8676 eab6 983f
00000150: 56c6 face d3b8 acbf dedc b33a a8c6 9c3f
00000160: 2ef9 6c79 a5c3 9fbf 1635 c2bb 91ef c0bf
00000170: ae79 e89e 05eb b4bf 5ed5 ec0a 4e6c b2bf
00000180: 3e5c 18eb da65 a9bf ad9c dff3 7463 b8bf

fc2.bias f8 [1]
0.010369044443656498
00000000: c2cf 3596 5d3c 853f
