model.pth (torch, 77583 bytes, 8 tensors)

conv1.weight f8 [10, 1, 5, 5]
000000 ff c5 52 fb 2b 8f c2 3f 5c 03 87 dd ab ba c7 3f
       0.14499425670287278 0.18538425747649512
000010 89 b3 2d 8b e5 f1 b8 bf 7a a1 23 3b 90 21 c6 3f
       -0.09744105003274063 0.17289927375464825
000020 2f 42 a3 2a c3 f2 c7 bf d0 dd 73 ee 10 8b 71 3f
       -0.187096019572452 0.004283014429567314
000030 54 e1 cc e9 67 dd a5 3f 2e 9c 50 38 20 f4 ba 3f
       0.04270481804855089 0.1052875649917133
000040 b3 72 de a9 46 be be 3f 84 5c 6f 2f 38 09 c7 3f
       0.12009088179770337 0.17996885601198553
000050 32 db 0a 0f f9 c8 b3 3f 7d df 35 ab 89 8b b4 3f
       0.07728535287138241 0.080254177379059
000060 3a 1b 83 cc b5 08 bb 3f 78 78 ef fd bf 24 be bf
       0.10560165636989619 -0.11774826001735217
000070 84 58 51 5a 43 8e b6 3f cf 8c 76 1a 03 02 c7 3f
       0.08810826258681642 0.17974890510695338
000080 37 8d d3 57 f9 97 c9 3f b7 4d 31 a2 49 20 90 bf
       0.1999503783073153 -0.015748167538118554
000090 2c 1d 09 99 e2 f0 a1 bf 0f a1 00 ec 60 05 c3 bf
       -0.035040932828048404 -0.14860164187963007
0000a0 73 88 80 fc 4f 15 9c 3f e0 b4 4d 38 91 6e ba 3f
       0.02742505053186801 0.10324962257955717
0000b0 35 d6 7d 9a df 1f cc 3f 55 97 05 3c 9f 80 b7 3f
       0.21972270053417878 0.09180636611344302
0000c0 92 4b 33 b4 6f e8 c4 bf 25 58 13 91 b3 c7 9d bf
       -0.16334339426847727 -0.029082113008222294
0000d0 02 f9 87 44 aa 2e bd 3f e2 76 7a 46 fc 9e c3 3f
       0.11399330304263702 0.15328935090376833
0000e0 3a 18 ad 17 f2 bf 7a bf 8a fb b7 ff a3 ec c4 bf
       -0.006530709909219163 -0.1634716986299874
0000f0 1e e2 71 00 75 0e 9a 3f 1a f1 26 bc a6 57 6f 3f
       0.025445774223472488 0.0038259750883452683
000100 2a 75 59 e8 4a 3a c5 3f b0 05 a4 88 e4 d3 c5 bf
       0.16584144921481797 -0.17052895233068233
000110 4e e5 85 1c 0b 8b b7 3f e0 2f ee e4 a5 d9 c5 3f
       0.0919653839718155 0.17070459058993404
000120 d5 d9 27 53 73 59 92 bf 87 62 76 5a db ac b5 3f
       -0.01791935153047482 0.08466883619838415
000130 7b 31 a9 71 63 4f c4 bf be a3 5c 93 1f 5c be bf
       -0.15867274331902678 -0.1185931906480979
000140 3b e9 ad 64 89 79 9d 3f c5 e8 d8 3d 0b a0 bb 3f
       0.02878393818853307 0.10791082630103961
000150 6e 34 6c 3c c1 27 8b bf c3 c0 34 dd 4c dd c7 3f
       -0.013259420067266183 0.18644104767873246
000160 9f 79 3d 3f 8f 54 99 bf a4 71 5a ed fd 52 a4 3f
       -0.024736631617423673 0.03969567797068699
000170 44 c8 8f 12 7a ad c7 3f ab bb 98 a7 21 c5 b7 bf
       0.18498159319239182 -0.0928517374202175
000180 f2 87 87 9a 81 8c 8e 3f 66 b8 e4 6c ec f9 ae bf
       0.014916431930888738 -0.06050051526322946
000190 75 d2 f6 d6 ed 68 c3 bf 0e 77 47 d9 1a 89 c7 3f
       -0.1516396808271058 0.18387160882314685
0001a0 d9 d8 ba 0c 1b d3 be bf 5a d0 1a 7f 11 39 bb 3f
       -0.12040871678150057 0.1063395438494025
0001b0 af 70 bd ae 91 be be bf 80 03 32 1b 0f cb b9 bf
       -0.12009535328019426 -0.10075468458127368
0001c0 7a 93 5e 62 9a 0c 84 3f fa 58 25 1c 9d a3 bf bf
       0.009789663435933117 -0.12359029709964267
0001d0 90 b7 ec 4a f5 d3 b2 3f de 99 79 8d 68 ce b2 bf
       0.073546725074918 -0.0734620423696479
0001e0 90 c8 ef f3 99 bd bf bf ee 5a d4 2b 00 67 9d bf
       -0.12398683743939132 -0.028713228869572775
0001f0 ca 2c 22 f2 ab b2 89 bf ef 01 22 e3 22 45 ac 3f
       -0.012547820402934912 0.05521496794336033
000200 7e c4 94 2a 88 98 b9 bf ba 34 99 cc 83 b7 c5 bf
       -0.09998370208337978 -0.1696629284873888
000210 56 94 c0 5a ff df bd 3f 79 74 7f f4 7c 25 a7 3f
       0.11669918027526313 0.04520788654893066
000220 60 99 b5 e7 b0 b4 b5 bf c6 5f 1a c9 51 65 6d bf
       -0.08478837639777259 -0.003588351952952681
000230 bf 17 8b 13 5a 05 ca bf c5 31 1e 13 b6 2c c2 bf
       -0.20328832582725728 -0.14198947843068602
000240 70 ae b0 1f 0c 93 c5 bf d4 89 58 52 53 51 94 3f
       -0.1685500292527311 0.01984148206805421
000250 e9 20 26 8d c3 07 b0 bf 21 50 b2 f3 3f f1 c1 bf
       -0.06261846729296718 -0.14017485999340898
000260 72 27 7b 07 03 f6 84 bf 46 6b 22 9d 6d bc 28 3f
       -0.010234855333141477 0.00018872106608544044
000270 ec 45 77 fa 6e 4e c7 bf 61 36 83 a7 99 a9 bd bf
       -0.18208110074787898 -0.11586914386426762
000280 78 7e e4 8e 1b 8d bc 3f bd 07 cc 00 e2 de bd bf
       0.11152813185298693 -0.11668217200715865
000290 de 08 b4 70 b7 92 c0 3f 85 b3 b0 14 19 cd c2 3f
       0.12947743418778307 0.1468840933825072
0002a0 76 28 8e e4 c2 7d a0 3f ec 9f 31 97 e4 5b 8a 3f
       0.032209482574288836 0.01287058435828211
0002b0 79 56 c8 c1 11 c5 c5 3f 0f 17 9e 8f 43 48 c8 3f
       0.17007657968558812 0.18970531952452815
0002c0 87 b2 59 26 13 95 c2 bf f4 a5 89 e1 91 45 93 3f
       -0.14517440197541395 0.018820075407722528
0002d0 7f 43 22 d1 cb 1a aa bf ae b9 96 33 33 99 9c bf
       -0.05098568847564077 -0.027928161643723186
0002e0 b5 7c 4e d4 17 90 7b 3f 71 40 69 19 01 49 c0 bf
       0.00672921474770687 -0.1272279142453985
0002f0 69 0c 50 21 73 49 a4 bf a3 2f 43 f1 a6 09 b2 bf
       -0.03962287694596329 -0.07045977964588572
000300 87 f4 d5 a2 c5 7f a3 3f ad b0 18 bf 05 52 b3 3f
       0.038084198119556815 0.07547031321945737
000310 a4 6f 46 e6 13 55 ae 3f c6 ac 03 bb ff df 97 bf
       0.059242841586836265 -0.02331542567200697
000320 1c f8 5d f6 56 48 bb bf 59 bb 38 5d c4 45 bb bf
       -0.10657256617375349 -0.10653331066053563
000330 0d b1 26 f2 be 29 b7 3f d1 e3 fb c5 f3 a7 c1 bf
       0.0904807416142754 -0.1379379955976945
000340 7c 4b c2 19 c5 83 ba bf 35 fd 6e 6e a8 13 c8 bf
       -0.10357314947968449 -0.1880999125696491
000350 5b 53 ee 06 d0 04 be 3f b8 a1 85 18 e0 59 b7 bf
       0.11726093453610302 -0.09121513937646497
000360 fd 71 67 73 54 b8 b8 3f 14 09 90 66 bd 21 b9 3f
       0.09656265084726808 0.09817107919665019
000370 0c bb df 05 f2 5c ad bf 76 21 f9 2f 68 57 c4 3f
       -0.05734974214271035 0.1589174494022349
000380 97 61 5c 0a 21 fc ba bf 8c 0c e2 d0 6f c6 92 bf
       -0.10540968420935425 -0.01833510124607733
000390 44 90 40 a6 67 56 a7 bf 0a 16 ec 63 49 79 c1 3f
       -0.045581091923196954 0.13651387576116775
0003a0 88 5b 2f 06 c3 c1 9e bf f1 6e 5a bc fe 24 b3 bf
       -0.03003601765871225 -0.07478324984043262
0003b0 79 60 a2 31 2f c0 c1 bf c9 f9 38 af c8 d0 c0 bf
       -0.13867750094937373 -0.13137157970227367
0003c0 42 ee 73 b6 7f 2d 99 bf ef 86 a5 df c6 0a bb bf
       -0.024587626944578618 -0.10563319168207007
0003d0 b3 76 9a f6 43 a8 9d bf 6c e2 f1 72 32 db 9a 3f
       -0.028962194372630545 0.02622679544990307
0003e0 e4 57 40 23 b7 81 c2 bf d8 35 6a 1c 91 a0 b2 3f
       -0.14458359929329767 0.07276255553934818
0003f0 20 b4 1a 0f 29 1c b4 bf 09 6a 45 b2 8c ad b6 bf
       -0.07855469340093224 -0.08858565666506747
000400 0a 2a 32 2d 2c dc ac 3f c2 2f d3 d9 3a b7 a4 3f
       0.056367283360561585 0.0404604330920786
000410 0a ea e6 9f f2 24 a8 bf 3a de 0f dd 52 a8 be bf
       -0.04715688898018662 -0.11975591561337576
000420 39 f4 86 09 1d e2 be 3f 2d d6 87 a0 e8 cd c2 3f
       0.12063771708103922 0.14690883482369213
000430 72 54 ed 46 36 2a b1 3f f1 09 99 97 ed 7d a6 3f
       0.06705035430543818 0.043929505115119734
000440 b9 f8 07 98 4b 75 c4 3f 2b 50 a7 20 dc 51 c3 bf
       0.15982956813235719 -0.15093566507732822
000450 77 e5 fe b2 34 bf b7 3f ec a5 ba 9b 3e 74 c1 bf
       0.09276131982814727 -0.13636000255546266
000460 d1 c3 c0 80 31 ef c7 bf 3d 34 38 c5 f2 b3 c1 bf
       -0.1869871023823451 -0.13830408696995447
000470 73 84 c8 af 10 14 c4 bf bf 82 8f a7 25 f2 c1 3f
       -0.15686234076659708 0.14020224267644285
000480 31 33 5d ac bc e2 c6 3f 46 36 7d 28 76 0e 8c bf
       0.17879446426595672 -0.013699458227757987
000490 8a 96 13 93 b7 99 99 bf 68 9d 28 1a b1 f4 b6 3f
       -0.02500044665511906 0.08967120064391099
0004a0 5e 5e da 66 ad e8 b5 3f 23 78 09 71 51 fb c1 bf
       0.0855816246133769 -0.1404821206987786
0004b0 7c 44 e0 4d 47 78 6b 3f d1 c4 8c b4 da c9 a3 bf
       0.003353251710912773 -0.03864940122583394
0004c0 57 9b 59 ba 65 25 b2 bf f5 d8 b5 88 36 8c b5 3f
       -0.07088313865243144 0.08417073094992474
0004d0 33 18 9e 78 ba 4b b9 3f 21 00 63 e0 e8 8a 69 bf
       0.0988117737270791 -0.003117995106634922
0004e0 a0 98 f2 02 95 2e 90 bf ac b9 92 80 a1 9a 9a 3f
       -0.015802696518811943 0.025980494949800523
0004f0 33 0b 7d 79 3e 8e 79 bf eb 13 47 0b 6f 89 bb bf
       -0.006239170113817849 -0.10756582284291454
000500 d0 de e2 f7 2d ff c6 3f 6d 59 49 29 30 df a0 3f
       0.17966246227091753 0.03295279029832696
000510 a8 0c b7 c0 b2 4d a3 3f fb eb 1f 95 b4 7f bc bf
       0.0377021656272743 -0.11132362976779568
000520 ba 0a 09 3e 02 34 c5 3f a2 bf a3 19 30 99 c3 bf
       0.16564968136852604 -0.15311242343841253
000530 0c 7c bc 16 ee b3 c1 3f 89 13 67 de dc b0 ad bf
       0.13830352888268782 -0.05798998083950042
000540 bc a8 82 3c 83 fa b3 bf c2 75 8e 85 95 12 ad 3f
       -0.07804126956276297 0.05678241019561937
000550 35 7a 66 29 fb 89 b0 bf 78 8f d4 89 39 2c bd 3f
       -0.06460542450666014 0.11395606627462296
000560 ec 79 84 40 81 10 b3 bf 45 42 59 4f f0 b7 b5 3f
       -0.07447059464582367 0.08483793198798491
000570 c4 6a 73 0d 8a 2e 3e 3f 5c ab 73 7c 00 67 c6 3f
       0.00046053762839696707 0.175018368499276
000580 11 f3 69 56 19 60 90 bf 38 d3 3e 8d 2a 12 a3 3f
       -0.015991588496478807 0.037247972242232696
000590 8b 76 1f 80 1f 18 b7 bf d2 a6 7a 21 6c 6c c4 3f
       -0.09021183851242591 0.159558788630696
0005a0 96 69 77 e7 fa 36 c1 bf 29 f8 de cb ee b8 c2 bf
       -0.13449035932610504 -0.14626870112073334
0005b0 f5 8b 94 89 e5 6a 94 bf 9d 61 80 6c 5c c6 a0 bf
       -0.019939028284294797 -0.03276337456208298
0005c0 67 2d 8f c6 53 7b c4 bf 32 90 f8 4d c5 f6 8e bf
       -0.1600136489417807 -0.015119115297302785
0005d0 82 af 43 7b d6 27 79 bf d6 37 f3 d1 28 92 bd bf
       -0.006141507929196767 -0.11551146627172612
0005e0 b0 a1 d2 25 e3 2a be bf 6d e6 a8 9a 5a 3e c4 3f
       -0.11784190820129115 0.1581528906988753
0005f0 7a 23 54 17 df 94 9d 3f 7e 35 0b 3c a6 98 b5 bf
       0.028888212012165827 -0.08436049428856582
000600 7b 68 b4 00 7b 82 7c bf c0 fe 1a 9f af 1e c7 bf
       -0.006960373382094538 -0.1806239630586699
000610 81 72 c8 cf 44 9b c4 3f 94 4d 67 14 59 94 b2 bf
       0.1609884275975624 -0.07257611034520145
000620 26 7b 41 14 39 28 9d bf ca 4e 1f eb 27 4a ab bf
       -0.028473750935854934 -0.053300139857723375
000630 b5 2b 35 79 26 a5 c0 bf 6c c5 9e 56 c9 7a 82 3f
       -0.1300399867853607 0.00902325912088272
000640 d1 8a ca 99 73 34 92 bf 81 39 f8 a5 0f 36 c2 bf
       -0.01777821184317469 -0.14227481464372363
000650 9f a8 34 6b bb 14 bf 3f ce 59 a3 f7 cb 82 c6 3f
       0.12141009681059466 0.17586659995750015
000660 a1 a7 ed 1e 33 9f ae bf 93 58 28 9d 2b 9b af bf
       -0.05980834724944307 -0.06173073094775918
000670 77 09 93 f2 ba 00 ca bf df a4 4d f6 f2 16 c6 bf
       -0.20314728588534667 -0.17257535006073163
000680 70 95 16 b8 64 11 c3 bf 14 1e 64 9f 1e 85 bd bf
       -0.14896830547983653 -0.11531249419578443
000690 59 3a 90 99 c5 a8 c1 bf 9f 0e e4 61 98 3d c6 3f
       -0.13796300886356752 0.17375473766161506
0006a0 c9 09 51 35 6f 3c c8 bf f8 86 8a cd 1a 7e c4 3f
       -0.18934431174609603 0.16009840999782177
0006b0 89 0a c5 54 bd 23 c2 bf 6d 9b a6 a2 16 98 c3 bf
       -0.141715685264064 -0.15307887021955527
0006c0 40 2b 54 2c 85 a1 c2 bf 7f 63 62 02 63 f8 b3 3f
       -0.14555420555583432 0.07800883110247801
0006d0 65 59 68 f0 da 08 c4 bf d4 71 90 18 bd 37 b4 3f
       -0.1565202401986411 0.07897550439560713
0006e0 2e b5 6d 4a 3d 40 c3 bf f3 eb 21 57 92 fe ac bf
       -0.15039793142515506 -0.056629727493564895
0006f0 37 bb b8 2c 22 80 af bf f0 3f cb 1a 32 3d b3 3f
       -0.061524455985241415 0.07515252260350258
000700 71 c0 05 98 11 6d c1 bf 16 f6 cd c7 0f a7 b1 3f
       -0.13614101336452536 0.0689554083637279
000710 df a3 f1 8c 6d ab 79 bf d1 90 da db da 0c b9 bf
       -0.006267002040751784 -0.09785240047000633
000720 ee e2 65 01 08 c9 a5 3f 39 08 cf c3 06 10 b5 3f
       0.042549371882108264 0.08227579384313878
000730 58 c6 a0 31 1a 47 b7 bf 5e 2b ab 85 a0 a7 89 bf
       -0.09092868529912701 -0.012526754454844354
000740 51 75 4c 94 4a 16 be bf c6 b8 81 3c 72 a9 bb bf
       -0.11752763863156203 -0.10805429436888678
000750 30 5f 03 1b 9c a2 c1 3f a9 27 b9 ac 75 86 bf bf
       0.137774956884408 -0.12314544169308185
000760 41 69 5e 34 e5 c7 c4 bf 06 77 76 d3 06 c7 c6 bf
       -0.16235032136030195 -0.1779488117726304
000770 02 53 2c d2 72 66 c7 bf ac e1 45 43 83 8c 9e bf
       -0.18281398069725446 -0.029832888585106396
000780 ac ee a0 49 43 08 c4 3f 1c 22 ec 4a 0e 47 a0 3f
       0.15650216193340805 0.03179211296634696
000790 99 9a 0a 4f 01 a2 c2 3f 22 6a 17 ff 17 8e bd bf
       0.14556900367206962 -0.1154494283468144
0007a0 c6 67 42 4b e0 ed 8c 3f 17 65 09 8d f0 51 c3 3f
       0.014125587746366974 0.1509380997329479
0007b0 69 21 c3 f8 e2 fc 6a 3f 22 e9 d3 7d 7e a6 96 bf
       0.0032944138566543446 -0.022119499616544698
0007c0 20 c4 af dc a5 0c a3 bf 13 ea 13 04 75 cd c7 bf
       -0.037205870808868946 -0.1859575529013716

conv1.bias f8 [10]
000000 b2 75 f5 cf ae 81 b2 bf 34 14 11 82 ed e4 c4 bf
       -0.072291303416441 -0.16323632098115726
000010 1c eb d1 0c 38 81 b7 3f a1 9c 4e 55 8d b9 7b 3f
       0.09181547463405731 0.006768753130848599
000020 62 f5 49 2d 6a 54 b8 3f c0 92 24 31 9e 9e b9 3f
       0.09503806691824004 0.10007656764771422
000030 66 54 86 17 a7 64 b5 3f e9 3b e9 d9 92 78 c0 3f
       0.08356708835920443 0.12867961540402398
000040 57 6b a8 9d cc e0 bd bf 99 5c 28 0e 0f 8b b8 bf
       -0.11671141480512169 -0.0958718690456969

conv2.weight f8 [20, 10, 5, 5]
000000 e4 ea 07 8b c5 14 9b bf 8f 71 c7 4d c7 72 9f bf
       -0.026446425066732795 -0.030711282846696938
000010 b5 43 3a 26 0e 45 94 bf 84 29 f7 96 f7 c6 a3 bf
       -0.019794674952723763 -0.03862737386551188
000020 a1 70 21 f9 95 eb 9a bf b6 31 09 80 73 a4 a9 bf
       -0.02628931363175069 -0.05008278787554181
000030 d9 0f 8f 2c 97 0e a8 bf ca 2f dc b2 e8 c3 a3 bf
       -0.046986316861449225 -0.03860404189444429
000040 37 15 96 cf fb 39 ac bf d8 7d 3a 7c b5 d7 9a 3f
       -0.05512988003742197 0.02621348925333486
000050 68 6f a6 03 b5 80 80 bf e1 8e 90 9d 7d 32 a9 3f
       -0.008057989286321024 0.04921333835980391
000060 a3 3a 23 5f 09 64 9c bf 80 dc 23 bd 92 88 96 bf
       -0.02772535937475119 -0.022005360407061136
000070 8d ab 76 96 92 35 a5 bf e0 c1 71 b1 4a f9 a4 bf
       -0.04142435156548805 -0.040964445267380745
000080 a0 6c b9 33 80 e8 85 bf 66 60 6a 22 59 86 a0 bf
       -0.010697366312504564 -0.032274995280375404
000090 bd b3 04 c0 61 a0 ac bf 31 03 5a f6 29 05 94 3f
       -0.055911116304151666 0.019550948773488123
0000a0 86 34 ef 4c e5 d0 ae 3f f5 1c e5 97 4d 34 a4 3f
       0.06018749775066916 0.03946154097735103
0000b0 b1 c7 61 7f c1 e5 71 3f da 2b 06 2c aa f2 a8 3f
       0.00436950287813602 0.04872638499644895
0000c0 06 0b 37 0f 4c 73 79 3f b7 3c ba 0b 6c e8 ad 3f
       0.006213471514856966 0.05841386454732727
0000d0 96 7f 65 a8 0d 77 9d 3f 44 4a 22 7e e2 73 a9 bf
       0.02877446499166999 -0.04971225537987725
0000e0 e5 4c af 0b 83 10 a7 3f 51 3d 4f 0a 4c c1 9d 3f
       0.04504785077701871 0.029057682160609947
0000f0 dc 2a 8d 58 41 cf a8 3f 2a 5e 62 7c e3 10 83 bf
       0.04845623212766778 -0.009309556229978606
000100 5b 4e 2c 12 68 98 80 3f 4a ef a0 f3 e2 6a a0 bf
       0.008103192381475546 -0.03206547950727996
000110 63 43 87 dd d5 c5 ac bf d5 50 2d bf 29 ea ab bf
       -0.05619686440662155 -0.05452089747146408
000120 cc 4b 2d 9d 5a ff 96 bf ca b4 10 d7 ba 7c a3 3f
       -0.02245847305614372 0.03806098819073041
000130 97 a2 b8 30 7c 17 90 3f dd 08 35 77 4d f3 90 3f
       0.0157145886170463 0.016553125763729127
000140 71 8c 3b c5 c8 01 8d bf df e0 bf 2a 56 cc a0 3f
       -0.01416355945497669 0.032808964460800054
000150 78 07 e3 e1 85 13 a5 3f 0e fb 66 94 e0 92 87 3f
       0.04116457350165964 0.011510614899518792
000160 bf 30 85 35 20 5b a3 3f be fd be 3f 1c 48 a5 3f
       0.0378046098072402 0.041565783292294864
000170 fa e7 3f 20 3d 44 86 bf ce 68 4d 4c c0 1e ab 3f
       -0.010872342631035526 0.05296898776460211
000180 3e c0 0a a7 cf 31 a1 bf dd 20 c0 14 18 6d 63 3f
       -0.03358315385901321 0.0023713560422074912
000190 e2 6f a7 60 b5 4d ab bf 5d 4e 0f ca a9 92 b0 bf
       -0.05332724385127087 -0.06473790343380288
0001a0 01 73 ce 88 c1 98 af bf 1f dd 9e 93 27 fd ae 3f
       -0.061712310743336836 0.06052516629227455
0001b0 59 ac 09 03 8b 6c a8 bf 98 38 73 7d 2c 12 a6 bf
       -0.04770311748583173 -0.04310740500805926
0001c0 9f db df 34 5a 83 98 bf fd 5b 34 bc 6c 9d b0 bf
       -0.02393856952400208 -0.06490211100422978
0001d0 28 79 7c 13 ff 2b aa bf e7 9c 27 e7 23 ec ab bf
       -0.051116915825547615 -0.05453598210061177
0001e0 59 53 c9 3c ef ee 8c bf 37 6b 2d 5e 26 9e 61 3f
       -0.014127606432489935 0.0021506070492426604
0001f0 7f a4 7e 70 eb 0d 92 3f 6d b4 8e 86 75 24 9c bf
       0.017631224385386886 -0.027482830369696055
000200 44 b7 e4 4b 37 ed 8d bf 55 51 e7 53 b8 34 9a 3f
       -0.014612609866698663 0.02559173595530358
000210 36 4d cc d6 1c 20 91 3f ac 56 bb ef 9a a1 a0 bf
       0.01672406254790567 -0.032482949985632587
000220 5a 39 47 4f f1 94 ad 3f 97 5b c3 cc 0d 8d 8e bf
       0.0577769669795198 -0.014917476474165343
000230 d3 bb 90 39 38 94 aa 3f fa 27 ec 0b 19 d4 ac 3f
       0.051912076022169316 0.05630567808664462
000240 cd e4 f4 25 95 46 62 3f 2e d1 55 87 ca de 90 3f
       0.002230922036372185 0.016474880705076682
000250 df 5e c4 98 0b 4f a9 bf 70 b3 67 be 28 d6 a3 3f
       -0.04943119277794294 0.03874327968865188
000260 71 69 25 23 55 d4 6d bf 4f dd 30 18 62 ee 68 bf
       -0.0036412871205985732 -0.0030433574588887634
000270 7d cf cd 7d fd c9 94 3f e0 e3 30 2a 9f 05 9f bf
       0.020301781466926173 -0.030294882726796035
000280 6d 4f 3b 36 fe c1 87 3f 30 90 96 19 01 2b a7 3f
       0.011600481061954071 0.045249971746017414
000290 6c cd 59 b7 ea 7c 3a 3f 07 e2 4b 98 04 99 a0 3f
       0.0004041741407043362 0.032417434302207275
0002a0 e5 c5 79 e7 60 d2 a9 3f bd 6e dc 5b 0e f3 77 3f
       0.05043318582182702 0.005847030724705324
0002b0 db e9 fe f8 57 7e 7f 3f cd d8 95 52 e9 b9 85 bf
       0.007688850062488285 -0.010608504135899111
0002c0 a7 a8 d1 85 8a b3 88 bf 05 d4 bc c8 8f 6b 9b bf
       -0.01206119748004071 -0.02677750265793934
0002d0 13 0f 7b 9d ce 91 a0 bf fe 9b f9 13 dc e8 74 bf
       -0.03236241981860934 -0.0051048847959469495
0002e0 83 a1 99 08 0d 95 8a 3f 29 7c 51 ff ea 1f ac 3f
       0.012979604554133278 0.054931014696869625
0002f0 89 81 53 ad 40 14 87 bf 81 15 ce 54 52 38 96 3f
       -0.011269097604270655 0.02169922487839449
000300 3e 97 fd e7 c0 7e af 3f 34 27 d2 c0 39 0d 91 3f
       0.06151392776409502 0.01665201415429536
000310 17 d8 c0 24 d6 95 a6 3f 64 92 19 48 22 64 94 3f
       0.04411191176079415 0.01991323056280904
000320 13 ec c0 6d 85 4e 82 bf 33 aa 17 13 28 fc 90 bf
       -0.008938829814828997 -0.016586900868711573
000330 bf 75 2f 67 5c e8 94 3f 91 48 93 25 58 50 a9 bf
       0.02041763667863505 -0.04944110354121379
000340 87 1b b0 28 d4 38 ae bf 9b 0d 6e ce 53 a0 a7 bf
       -0.0590273189227935 -0.04614507574936085
000350 33 cd 11 d9 d2 12 a0 3f ff 09 23 6d bc 9e ac 3f
       0.031393612859483964 0.05589855987775038
000360 3d 9f 31 e5 e5 13 aa 3f a9 67 64 d2 3b 43 a9 bf
       0.050933059909594715 -0.04934107726349108
000370 c3 0a 3c 63 be 8e a4 bf 5a db fd 7c 9a c8 99 bf
       -0.04015154801711198 -0.02517930400741917
000380 1b c3 e7 d5 34 04 9a bf e3 3e d0 71 0d c8 77 3f
       -0.025406671100372962 0.005806019323258946
000390 87 b1 13 9f 84 17 78 3f fd 99 98 1b ca 6e 92 3f
       0.005881803562470706 0.01800075334008432
0003a0 e3 45 24 a0 49 d0 a3 bf 5c db d3 dd 4c 70 91 bf
       -0.03869848327498084 -0.01702995399406447
0003b0 8f 2c 10 ad 16 e0 a7 bf 4e 71 b5 04 63 6c 9b bf
       -0.046631535173298315 -0.026780650293731605
0003c0 76 3b 0b 9c 3a a5 aa 3f 54 28 fe ec ba c6 a4 3f
       0.052041846798252786 0.04057869093874503
0003d0 bc bb 89 04 21 58 a1 bf 38 06 ed f2 d8 ec a9 bf
       -0.03387549572368395 -0.05063512769130479
0003e0 89 5c fe 83 fd 01 a1 3f 9d 96 0b bb 02 09 8f bf
       0.0332183097481727 -0.015153905232590243
0003f0 af 10 5c 10 9c 6d a9 bf 79 92 98 69 ac 90 aa 3f
       -0.04966438007071027 0.05188502110494126
000400 89 e0 ab 84 98 f7 a1 bf ad 34 5d 06 d4 93 6c 3f
       -0.03509213084720481 0.003488458739332309
000410 37 86 9d 4f 57 e0 8c 3f f9 5c 37 ab 23 fd a4 bf
       0.014099771611372975 -0.04099379982988611
000420 e0 a3 17 72 4e 08 9e 3f 38 32 4f 26 67 5a a7 bf
       0.02932856150974661 -0.04561159460681491
000430 86 62 df 89 36 58 a6 3f 8b 9f 36 5f ee f2 9d 3f
       0.0436417620946417 0.029247021256793054
000440 d1 45 38 71 4d 38 87 bf 38 6e 15 14 0f b3 94 bf
       -0.011337857263273772 -0.020214305496990742
000450 b8 88 12 92 a0 30 85 bf 43 68 b9 b4 97 b3 a2 3f
       -0.010346655328536833 0.03652643281084569
000460 ff 82 c0 c7 0a 23 99 bf b3 d5 2b 78 2f 13 4d bf
       -0.02454773754300543 -0.0008872968467971615
000470 95 b8 e8 e1 04 30 8b bf 56 37 fc ce 0e f2 9c 3f
       -0.013275182861516558 0.028267127402663426
000480 1c a3 50 a3 ae 83 9d bf 0f a0 39 35 6d 40 a6 bf
       -0.028822640150028098 -0.043460285899357236
000490 bd ba 9f 8f e3 6b a2 3f 33 7d 00 1c f3 3d af bf
       0.03597937706205332 -0.06101951329059787
0004a0 25 ee 3d ee e1 fe a0 bf 00 fb 15 a2 58 1b 85 3f
       -0.033194599468483944 0.01030606503149789
0004b0 4c b1 9d 39 c5 c4 7e 3f 4d 54 b8 5e 2d d8 90 bf
       0.007511873636627375 -0.01644965067506048
0004c0 84 86 79 44 d1 00 ac bf 2b b1 40 fe eb 9c ad bf
       -0.05469373665688429 -0.057837843691546396
0004d0 1e 82 f5 71 1b 01 4e bf 27 52 6f 4e e0 f1 87 bf
       -0.0009156593331845519 -0.011691810983316021
0004e0 98 8a ea 8b b5 42 a9 bf c5 f5 1b 03 f7 d7 a6 bf
       -0.04933707554780148 -0.04461643135980923
0004f0 6e 93 80 c7 72 a1 96 3f a5 34 2b 6d df 16 84 bf
       0.02210025160470102 -0.009809251326624422
000500 e9 f2 cb 2a 24 1e 5d bf bf 14 bf e6 21 81 93 bf
       -0.0017772057719291307 -0.01904728861679383
000510 ba 51 4d 69 26 8a 82 bf 6b 0c 37 eb b7 cb a3 bf
       -0.009052562798083186 -0.03866362329747449
000520 89 bb 06 17 a2 fb 9d bf 5f 41 e9 86 40 13 8f bf
       -0.029280216842092286 -0.015173439137612986
000530 97 25 14 1b c1 4d a1 bf b6 c3 04 b7 47 c0 92 3f
       -0.033796343379502485 0.01831161551053003
000540 6d 83 ef ba 25 ce 9b bf 5e 9d d9 e3 c3 fe 99 3f
       -0.02715357736076689 0.025385914594520435
000550 c2 eb bd 5d 44 b1 a6 3f 99 ef 5c 55 97 cc 9c 3f
       0.04432119030294458 0.028124203286310132
000560 10 1d 47 68 86 0d ae bf d4 44 18 3b af b0 85 3f
       -0.05869693777963836 0.010590905180864509
000570 2b 10 11 79 72 65 92 bf 7d e0 12 85 31 53 72 bf
       -0.017965115203210907 -0.004473870693964097
000580 b9 8a 87 60 33 63 aa bf d7 ed d5 67 71 08 8c 3f
       -0.05153809121454373 0.013687978726685408
000590 18 9c e4 61 95 9c 87 3f c4 ba b0 04 6a e4 94 bf
       0.011529128122289165 -0.02040258077266334
0005a0 f5 15 23 0c f8 e6 9e 3f 81 f0 a6 8d a2 a0 9d 3f
       0.030177951565539336 0.028933086295851233
0005b0 cd 1a ca 8d 5c e0 9d 3f 5d 7e 40 cc aa 92 95 3f
       0.02917618384756331 0.02106730338721118
0005c0 97 93 63 b1 9d 98 92 bf 6e b4 b9 a5 02 b7 ac 3f
       -0.018160308792079496 0.056083758096840394
0005d0 16 2e 45 c1 88 c0 a2 bf e6 76 d6 d3 a2 d5 af bf
       -0.03662516936546127 -0.0621767886725431
0005e0 c0 85 93 b7 7a 72 ac bf e6 b6 ee c1 5c 4e 8c 3f
       -0.05556090823098314 0.01382133929095226
0005f0 bb de 67 41 5e e2 93 bf 4b e2 a6 35 52 d2 88 3f
       -0.019418213598298744 0.012119905721975096
000600 e4 13 c0 02 1f 5c 88 3f 73 48 c2 08 3a 9c a6 3f
       0.011894457122261622 0.04416066510124574
000610 d4 a3 83 5a b2 0e 9c bf 22 e9 6b c9 d6 30 af bf
       -0.027399813437032197 -0.06091948708304275
000620 9d c2 16 ee 4c 2a 9b bf 56 68 b7 e2 27 ac aa 3f
       -0.026528551132005352 0.052094694543214956
000630 48 de 54 5f f9 4f a9 3f 3b dd 5e 12 66 9c a1 3f
       0.04943827904429249 0.03439635252237357
000640 7c d0 5b f7 22 23 a4 3f b3 b3 40 23 89 cc 99 3f
       0.039330570883891774 0.02519430425325071
000650 7f 7d 32 70 2a 0a 5f bf 08 20 13 7e db 03 a7 bf
       -0.001894513553260285 -0.044951304569224304
000660 ef 28 d2 9e c1 20 61 3f 1e ae 85 fc f1 3b a1 3f
       0.002090814747650708 0.03366047103449098
000670 00 81 36 20 91 d7 aa bf 87 4c fb d6 eb 94 ae 3f
       -0.05242589491104077 0.059729928963542504
000680 05 65 9a 7f c7 8a a0 3f 45 0b 80 7e ee a1 a4 bf
       0.03230880196242406 -0.04029794019881775
000690 cd 7e f6 48 61 ef ae bf 1e 4b d8 36 c0 5d 91 3f
       -0.06042007461223662 0.016959193561045464
0006a0 0e 1d 57 40 84 23 83 bf fc a7 29 19 dc 39 ad 3f
       -0.009345086301336038 0.05708205992853263
0006b0 3e ab 0c 4a ba 67 76 3f f0 cc 6a 29 b0 c9 92 3f
       0.005470016186147229 0.01834750416555847
0006c0 d0 86 3e 71 5e 63 84 3f ea db a4 eb 2a 18 9a 3f
       0.009955156165065843 0.025482817299430062
0006d0 db b2 52 10 70 28 8a 3f b4 e1 22 97 dc 16 9c 3f
       0.012772441385402391 0.027430960392594364
0006e0 82 ef 2d 5c 76 c3 7b bf d0 eb 3a 2d 60 c4 a7 bf
       -0.0067782042923417735 -0.046420102616557934
0006f0 de 47 13 1f aa e1 a3 bf bb 7e e7 01 93 79 a2 3f
       -0.038831058781979996 0.03608378790135932
000700 31 61 69 2a 1c f7 87 bf db 7b d9 70 a1 72 98 bf
       -0.01170179371290256 -0.023874781143941575
000710 04 77 18 a1 e6 5a 9a 3f b7 eb 8d 04 1a 7b a1 bf
       0.025737384397976917 -0.03414231591792521
000720 f4 eb 4a 21 b2 a2 97 3f 10 78 f9 dc 25 26 58 3f
       0.023081572801611785 0.0014739389188416253
000730 67 19 dd e3 12 ab 74 bf 97 bd 95 dd 72 d3 81 bf
       -0.005045961179183634 -0.008704087626681551
000740 33 01 5d db d5 4c a9 bf 05 9c f7 12 b4 42 86 3f
       -0.04941433241629269 0.010869414166291955
000750 c5 53 9c 74 20 5d 9d bf e0 26 13 df 9d f8 81 3f
       -0.02867556297049469 0.008774979944422723
000760 f4 b2 d1 b2 d8 3b 92 3f d8 3b 30 a3 3d 6d ad bf
       0.01780642119813343 -0.057474065943203534
000770 59 17 66 9f ea 64 78 bf 09 7d 7b b5 f5 6f 75 bf
       -0.005955616469128199 -0.005233726311160377
000780 d3 24 f6 3d df 24 98 3f 02 ac c5 4b fd 98 8b 3f
       0.023578155667142674 0.0134753979443385
000790 5c 3e 49 f6 b1 38 ad bf 55 e4 d4 59 7b d9 ac 3f
       -0.05707317477628912 0.05634675475671062
0007a0 5c 43 bc 0c c7 ba 33 bf 55 18 c1 3a 90 70 a5 bf
       -0.00030104980099659117 -0.041874415561821955
0007b0 d7 d0 e9 49 d5 63 af 3f 96 08 27 d8 c8 dd 9f 3f
       0.06130854155790793 0.03111947840967185
0007c0 0e c7 e1 ac aa e8 ae 3f 2b 53 2d 61 2e a2 72 3f
       0.06036885605216301 0.00454919926672374
0007d0 2b 45 46 cb b1 f5 b0 bf 10 f2 53 fd 40 8f a6 3f
       -0.06624900067096877 0.044061690257852004
0007e0 54 bc e4 84 c1 4a a4 3f 77 2b c0 ab e2 05 9e bf
       0.03963284251437274 -0.0293193261459623
0007f0 b7 e4 06 4e 62 7a 9a 3f d1 2b fa 6e c0 1f a3 3f
       0.02585748292196818 0.03735162119581726

conv2.bias f8 [20]
000000 f3 ee 56 10 c7 69 33 bf 37 eb 31 60 d1 73 77 3f
       -0.0002962218280477678 0.005725686906880515
000010 dd 01 7d 5b 7d 95 b3 bf 06 ae c7 c4 f8 8d 94 3f
       -0.07649978145219145 0.020072829256532664
000020 9f 15 63 e2 8a d4 96 3f 06 6b d6 3b da d9 8a bf
       0.022295160358017815 -0.01311083312139295
000030 82 6c f2 89 41 02 a0 3f 56 1a f1 4c 95 b7 b2 bf
       0.0312672119991584 -0.07311375740491974
000040 1b 99 00 16 2e 19 8d bf 5c 8e 07 f7 90 32 7e bf
       -0.014208183332880034 -0.0073724425023758665
000050 61 c9 8d 8a 36 90 9a 3f dd f2 87 d1 1e d9 a6 bf
       0.025940754133850222 -0.04462524707557745
000060 82 b0 e8 04 48 78 92 bf 8f 46 51 1b a2 a8 aa bf
       -0.018036961841219064 -0.05206781943765037
000070 a7 c8 32 64 f2 2d a6 bf 4b bb c1 42 55 bc a0 bf
       -0.04331929658055005 -0.03268686714078813
000080 f5 a9 11 5d c4 61 94 bf 2e 1d 21 49 ba 70 9a bf
       -0.01990420167968839 -0.02582064696642055
000090 26 33 9f 48 30 4c 96 3f ef 89 7e b4 6a 6e 88 bf
       0.021775011475074234 -0.011929353364227928

fc1.weight f8 [50, 80]
000000 17 ed d5 ee b0 1e ad bf c4 60 0c ce 0b 37 98 bf
       -0.05687477984880667 -0.023647484255975085
000010 f7 5a 7c 63 8c d6 b6 3f 02 8b c5 c5 ea 20 a4 bf
       0.08921124867297779 -0.039313637392089276
000020 fe a2 5f 2b e2 5e b3 3f ad 60 e3 d6 75 03 b7 bf
       0.07566655692029298 -0.08989655014318272
000030 39 e8 36 51 90 49 57 3f a8 c6 0f 60 e5 2b b4 bf
       0.0014213475559317192 -0.07879479975943104
000040 e6 5f c2 12 35 bb b3 bf 45 d9 7a 30 dd 41 70 bf
       -0.07707530696859485 -0.003969062825197438
000050 46 f9 19 80 03 38 b9 bf 4f b5 31 4f e2 c8 b4 3f
       -0.09851095082737968 0.08119024690104946
000060 4c ce 13 00 79 c3 a1 3f 80 9b 2d 72 3b 05 b7 bf
       0.03469446302360932 -0.08992358720352733
000070 50 f9 06 75 8f d3 a8 bf a8 54 02 1d 20 42 b8 3f
       -0.048489077601959196 0.09475899418096623
000080 8d 86 ce 5e 9e a0 b8 bf 67 b2 61 03 b5 98 b5 bf
       -0.09620084585778894 -0.08436137516555108
000090 45 1c 69 f8 5f 2a 9b 3f 95 72 0b 51 1e 1b b6 3f
       0.026528834854868916 0.08635129431372442
0000a0 d5 2a f5 c1 22 9c a0 3f 0d c4 78 02 cb c5 b7 3f
       0.03244122140548248 0.09286183176369907
0000b0 cd 0b c2 b4 4d e5 99 bf 46 81 52 16 4d 51 4b bf
       -0.02528878608473999 -0.000833666458351736
0000c0 07 6d ba 28 cc f8 b3 bf 51 61 b5 00 4a e7 b0 bf
       -0.07801509851781328 -0.06602919118211516
0000d0 3d cb 2a 2d 89 75 b8 3f 05 93 18 ec f9 11 b6 3f
       0.09554345467294652 0.08621179594099367
0000e0 e5 54 9e dc 20 cf a9 3f a7 80 bf 8b 34 01 aa 3f
       0.05040838902565684 0.05079044538411042
0000f0 54 ec 38 f4 13 a0 72 3f 12 22 bb 99 29 d7 a2 bf
       0.004547193475043693 -0.03679780961607916
000100 4d 16 d1 92 77 92 b7 3f ab 27 20 51 4b 18 a4 3f
       0.09207866033929087 0.039247850087192525
000110 de 82 ab ba c7 96 ad 3f a2 02 d9 96 98 6d 9c 3f
       0.057790986573086775 0.027761825758946153
000120 2e f2 fc f8 86 51 74 3f d7 44 94 a4 a4 5e b7 3f
       0.004960562931782193 0.09128788965269351
000130 8a 39 d8 ee 01 64 b0 bf 02 48 c7 15 27 88 b1 bf
       -0.06402599412124324 -0.06848377496433503
000140 0a 5b 3f ab 92 02 94 3f 88 ec 3c 38 09 1e ac bf
       0.01954106493198097 -0.054916656603802017
000150 86 48 94 8b b4 4b ac bf df 73 ab f0 00 48 b9 3f
       -0.055265085257034705 0.09875493884778973
000160 f2 71 a8 71 37 ab ab bf 51 87 d5 21 2a c8 98 3f
       -0.0540406538241064 0.02420106727129873
000170 ad 42 63 54 d4 40 bb bf de f9 a8 f9 01 ff 91 3f
       -0.1064579683327433 0.01757433973602384
000180 75 28 56 ca 12 d1 ab bf 96 2e a3 03 d4 2f a8 3f
       -0.054329478453909376 0.04723990005876748
000190 31 ce f6 25 f5 c3 92 bf b2 5b 46 fc 23 a9 a7 3f
       -0.01832564396108988 0.04621231512572112
0001a0 cd b4 ba 62 42 3b bc 3f f4 eb 20 84 2b 7e a7 bf
       0.1102792254484541 -0.045884475592593704
0001b0 05 02 b6 6d 7e 22 84 3f a3 17 fd 99 0c e0 95 3f
       0.009831416819680259 0.02136249246475298
0001c0 7d 48 0d 02 8b 5a b3 3f f8 c7 4e 39 b8 c5 93 bf
       0.07560032653899103 -0.01930892801073722
0001d0 1f bd ed d9 a0 21 85 3f f8 62 61 e2 eb 8d ba 3f
       0.010318047190337297 0.10372804905763278
0001e0 34 4c 83 90 da a7 b5 bf e6 dd 03 b4 43 f2 b4 bf
       -0.08459249523302576 -0.08182166237735763
0001f0 ed 7e 1f 48 81 bc b0 bf 75 e2 76 94 96 80 b3 3f
       -0.06537635813537764 0.07618085026377648
000200 d8 24 c9 bd b3 34 b2 3f 10 d3 f2 07 87 b9 b6 bf
       0.07111667045059578 -0.08876842445426925
000210 32 4e 63 6c 0d f2 b6 bf bf 5a 14 76 e0 f0 b3 bf
       -0.08963092704953438 -0.07789423830795793
000220 aa 9c 7d 1d e5 27 ae 3f 5b 02 64 34 21 ec 78 bf
       0.058898124551711575 -0.006084565835636181
000230 69 ab bd 15 a5 b7 8b bf d4 60 5f e5 3b 01 b5 3f
       -0.013533868528346553 0.08205007886806764
000240 8e 79 33 ed 34 a0 91 3f 96 43 16 8e 3c 11 b5 bf
       0.017212702729801736 -0.08229425877494942
000250 81 7b a5 3c 12 0c b6 3f 10 54 aa 57 a4 51 87 bf
       0.08612169247269998 -0.011386188435873051
000260 a7 d4 2f 0e 31 e8 9b bf ef 10 f8 ce fa 2a b9 3f
       -0.027252928248306187 0.09831206849054629
000270 e5 8a 6b ca cc ee b8 bf 6a a1 10 13 64 9e 81 bf
       -0.09739379827400858 -0.008602887946907518
000280 01 1f 70 40 05 f9 a5 bf 5e 5b 33 b8 06 7b ab bf
       -0.04291550075146056 -0.05367299078505171
000290 80 50 dc 93 d0 15 63 bf c3 4f 01 5c c1 e8 b3 3f
       -0.0023297380238407883 0.07777031418055373
0002a0 c4 5a df 88 0f 88 ac bf a5 21 d5 01 d0 98 96 bf
       -0.055725560625139475 -0.022067308532571456
0002b0 04 d5 d3 f8 e5 96 a4 3f a8 a8 3b 56 ac 58 bc bf
       0.04021376287884418 -0.1107280455140961
0002c0 53 1f 00 e6 0c fa bc bf e6 81 c9 a3 76 33 aa 3f
       -0.11319046607252163 0.05117388486246792
0002d0 1b b8 ea e4 a9 55 b2 3f 6d 3a 85 8f 69 d4 7e bf
       0.07161962355414213 -0.007526790949056489
0002e0 55 05 d9 7d f7 78 b5 3f 15 b5 14 54 96 75 bb bf
       0.08387705633596927 -0.1072629885936361
0002f0 c9 ae a5 40 7a 00 ba 3f 4c b0 d9 97 74 c5 a4 3f
       0.10156978681851138 0.04056896546976016
000300 b1 41 bc 9c 86 df ae 3f 30 33 1e 8a 82 c5 95 bf
       0.0602991167380681 -0.021261253051807205
000310 6c 4e 0c 8e f9 75 68 3f 5b 30 4d d4 98 4b ba 3f
       0.0029859422796876724 0.1027160185159927
000320 37 eb a8 ff b2 35 b6 3f 62 ea 36 6f f0 55 b6 3f
       0.08675688497252741 0.08724882807920545
000330 a0 31 87 b9 f3 9b b6 3f 82 a4 b7 d6 50 4e bb bf
       0.08831713942999508 -0.10666375391123675
000340 77 e2 c3 67 7c 30 a4 3f f9 a7 d0 00 09 da a7 3f
       0.03943241850533224 0.04658535132359982
000350 48 30 03 9c 94 21 a0 bf c7 49 ed 28 a1 2b 93 bf
       -0.03150619892548484 -0.01872112095163361
000360 ba 80 b7 b4 2b 34 91 bf a3 b6 d2 9b fe 3e bb bf
       -0.016800578026846515 -0.10642997078204046
000370 9f 29 24 07 98 ad bc bf 5f 1b 07 fc b0 5f a3 bf
       -0.11202383207652254 -0.03783944202910194
000380 e5 76 2c e2 16 31 80 3f 05 4a 26 20 dc 47 b7 3f
       0.007906130578301649 0.09094024453069245
000390 8a 07 c6 1f 78 40 85 bf 85 54 c6 b6 42 0b af bf
       -0.010376871556903717 -0.06063278657090002
0003a0 fa 6f c2 45 f5 39 b1 3f 81 2d 8f 7c 99 4e 8a 3f
       0.06729062035668668 0.012845229257343107
0003b0 98 4c 05 70 0c e7 b2 3f cf 16 e1 1e b0 12 9e 3f
       0.07383802161102648 0.02936816395256053
0003c0 94 c3 a8 65 e9 66 93 bf 3e 5f fe 9d 98 95 a3 bf
       -0.018947264508998155 -0.03825070313103972
0003d0 a2 12 2d 8b a0 4d bc bf 6d 7a e6 0d 77 d0 b2 bf
       -0.11055949590542949 -0.07349342431414536
0003e0 4b 00 b6 c1 e3 5e ba 3f c2 ec cd 63 82 7b a6 3f
       0.10301040152808232 0.043911051448014785
0003f0 60 7e 2d dc 54 2d 92 bf 38 92 58 61 3f e1 ae bf
       -0.017751050890522868 -0.060312252648405396
000400 c0 4b 77 1f 35 1e 86 3f 3e 94 fc 39 62 92 8c bf
       0.01079980375553713 -0.013951079744922375
000410 c5 cf ef 07 aa 11 90 3f bb 3e 64 35 1d 4c ac bf
       0.01569238351289905 -0.05526820446732247
000420 29 68 7f 13 e7 95 87 bf 00 34 8e 34 3f c6 72 bf
       -0.011516385347864215 -0.004583594222720144
000430 8f 36 7d 82 ae 3b b1 bf 24 d4 5a eb 47 1f b3 bf
       -0.06731692014474276 -0.07469605918852601
000440 cd b5 d7 8d 23 2d 81 3f c3 a4 4c c8 bc f9 b1 bf
       0.008386876836960955 -0.07021694078561595
000450 d5 c8 79 fa 4d 42 a1 3f a6 87 db 9f fe d7 96 3f
       0.03370898897709799 0.022308329111986012
000460 ce 6b 5e 50 0b 12 7d bf 00 23 90 82 67 c0 ad 3f
       -0.007097286410409033 0.05810855358874356
000470 a5 d7 8c 60 47 93 b8 3f 8c f7 1a 74 22 d3 a2 3f
       0.09599729640180373 0.036767079041495426
000480 2b 55 b7 ff b9 73 40 3f a6 ce b8 39 8f 72 a7 3f
       0.0005020769307814468 0.04579589442837788
000490 f2 08 0f 47 97 8f b8 bf a8 67 3c b5 82 b8 a1 3f
       -0.09594102368194848 0.03461082899430262
0004a0 72 08 d0 7c e5 cb b9 bf 46 cb ac c7 c5 61 9c 3f
       -0.10076746270354578 0.02771672278613415
0004b0 3f 56 20 90 53 6d a8 3f 9d 5f a5 51 60 ce ab bf
       0.04770909437517589 -0.05430890080123094
0004c0 9b e8 b8 23 5a 6e a9 bf ec 8a 13 80 d8 a5 aa 3f
       -0.04967004476607536 0.05204655230934016
0004d0 75 f6 58 d0 0c fe ae bf 30 a2 34 22 cb 5a bc 3f
       -0.060531998093648655 0.11076039872262622
0004e0 d1 d8 f2 bc 34 e4 a9 3f 76 6e cb 0d 10 ae 95 3f
       0.050569198670403666 0.02117180904575241
0004f0 e3 a0 57 48 29 d0 a9 bf 9d 77 9f 4e 8e a4 94 bf
       -0.05041626937946988 -0.02015898089290823
000500 a0 16 2f 23 12 18 a2 3f 3c aa 7e 42 a3 8b 88 3f
       0.03533989600650256 0.011985087839851187
000510 b0 9d 2e f0 e5 05 b2 bf 84 72 25 19 d1 96 ae bf
       -0.07040249933071752 -0.05974439079247865
000520 c6 09 59 41 82 32 b9 bf 5c da 55 66 c0 3c b8 bf
       -0.09842695327191739 -0.09467699526235535
000530 d6 15 f4 02 76 6b a4 bf a0 6b d8 c4 8f 71 9f 3f
       -0.039882362232713284 0.03070664061497619
000540 00 7b 7b ea df 40 b3 3f 1c ac 32 4f a7 00 ac bf
       0.07520865893046036 -0.054692486207692265
000550 db c8 ec 0e 26 c8 b0 3f ee 70 e2 e1 d9 c1 b1 3f
       0.06555402626398481 0.06936418308982059
000560 64 61 b2 bf 49 2e a0 bf 71 76 e1 2a 1d bb bb bf
       -0.0316031500344163 -0.10832388207333012
000570 2d dc 12 e3 3e be a8 bf 8e be 70 02 63 78 ad 3f
       -0.048326459139780155 0.05755910305776722
000580 37 e7 83 32 ad a4 a6 3f b9 96 46 42 69 ed 9e 3f
       0.044225132385646786 0.030202526731634125
000590 4b 8b 7a d4 99 ca b9 3f a5 de bd 38 f3 70 b2 bf
       0.10074769437282531 -0.07203598151488196
0005a0 58 84 a3 ad 7d 2e 8f bf 26 76 1f cd 06 5c ae bf
       -0.015225393163236386 -0.05929585699025734
0005b0 9e 6d a5 a2 86 5b b7 3f 1a 72 89 1d 86 18 aa bf
       0.09124032469610774 -0.050968352418497356
0005c0 3e 8a e8 f7 10 1a b4 bf fd 30 64 cc 67 21 b6 bf
       -0.0785227399106043 -0.08644722690604918
0005d0 16 3c ba 51 2c 56 b0 3f ff a9 16 a0 d8 01 a6 bf
       0.06381489749240674 -0.0429828353329249
0005e0 47 46 2f 97 ed 04 b3 3f fa 12 50 2c 14 85 94 3f
       0.07429394665748489 0.02003890533889583
0005f0 2a 40 2d 2a b2 00 a2 3f 19 0e 08 2b 79 d4 b9 bf
       0.035161559723406136 -0.10089833546231154
000600 75 15 5b 2f 2b af b1 bf 8f 0c 29 b8 62 b3 af bf
       -0.06907911211154334 -0.06191547868777391
000610 bd 00 c0 4d c2 25 9a 3f 31 a0 eb 0f f1 62 8f 3f
       0.025534664149746023 0.015325434969284487
000620 22 15 71 2e d8 d9 a6 bf d5 e7 a6 d8 e9 ec 91 3f
       -0.044630771321445786 0.017505315636050362
000630 d3 2a 58 69 9b c6 b6 3f f7 54 61 21 70 23 9d 3f
       0.08896800348172045 0.028455497777334107
000640 ce a1 9d 39 2b b6 71 3f c6 39 2d dc 57 50 ab 3f
       0.004324120376488284 0.05334734499648479
000650 57 91 6d 87 a1 20 91 bf 9f 89 a4 ca 6b 70 a9 3f
       -0.01672603978239925 0.04968582962671352
000660 fc 10 f8 c7 b1 af 84 bf c6 2c 5e e8 84 34 bb bf
       -0.010100735583371982 -0.10627012894672125
000670 5c a1 da 2f e4 94 af bf d1 94 7b f3 d4 4a bc 3f
       -0.061682825891071075 0.11051684326556034
000680 81 2f cb 92 aa 6d ad bf 21 46 c7 3a 75 74 99 3f
       -0.05747731248774724 0.02485831424002616
000690 6a 0b 1e 4e f5 44 93 3f 1b 46 eb 71 43 5a 80 3f
       0.018817742245583892 0.0079846638813335
0006a0 2f 6a 81 6d 1f 04 b4 bf 5b 58 c7 35 08 cd a4 bf
       -0.07818790839648025 -0.04062677055814908
0006b0 13 ed cb 7d 45 21 b6 bf 40 c9 da 9a 8d d8 b8 bf
       -0.08644518204885214 -0.09705433874731728
0006c0 3a 35 ea e5 99 43 b0 bf 43 37 8c 91 0e 00 b7 bf
       -0.06353151190906639 -0.08984461835299577
0006d0 73 3c 95 16 0b fb 86 bf bd ba 13 11 dd 31 b4 3f
       -0.011221014620472957 0.07888585726662263
0006e0 51 7d 73 95 39 2b b2 3f 60 e3 96 7d 2c fa a8 3f
       0.0709720601912427 0.04878367455552879
0006f0 a6 f7 b9 f1 c8 25 2e 3f 0e 24 e6 33 be 85 ae 3f
       0.0002300079148546661 0.05961412795574726
000700 a2 b2 14 2f 90 bd a3 bf 63 1e 45 a6 52 fc b8 bf
       -0.03855562758176247 -0.09760014113737152
000710 c4 67 d6 24 19 b0 b8 bf 51 06 08 b1 35 07 a5 3f
       -0.09643704556802307 0.04107063089396646
000720 b0 af 0c 35 c7 07 b4 bf 21 fe d9 ff 13 82 a8 bf
       -0.07824368519931002 -0.04786741731822653
000730 0e 6c 60 2c e9 11 ba 3f c2 96 5c 9e 07 8e 9e 3f
       0.10183579762853887 0.02983867553770981
000740 93 63 4e 65 6d 64 b3 3f 3d 44 cf ac 2d 19 b4 3f
       0.07575114939971987 0.07850919217095594
000750 af e6 5c d3 5d 90 a5 3f 9c 9c 44 7d 5f 32 9d bf
       0.042117054034361494 -0.028512470265152787
000760 13 e9 23 8f f5 2b ae bf fe 20 30 cf 2d be ba 3f
       -0.05892913219754994 0.10446440037060609
000770 d5 71 26 84 3a 4a b1 3f 34 9e 74 39 18 32 bb 3f
       0.06753888822863215 0.10623313334200973
000780 c0 48 2d 3c 8e 37 9a bf c1 48 10 a3 51 ae aa 3f
       -0.025602552817254987 0.052111197619653556
000790 29 c0 6c 56 b9 34 9a 3f ca 1d c8 03 79 e8 a3 3f
       0.02559175100321923 0.03888300105250726
0007a0 9d 30 95 66 6f bd af 3f 6e 15 03 28 05 68 a7 3f
       0.06199215056639782 0.04571548570087712
0007b0 9b 77 1d d7 a8 5f ba 3f 3f cb 64 50 fb a5 b5 3f
       0.10302214862664842 0.08456392967927416
0007c0 bf e5 e5 97 3d 69 a9 3f 10 91 70 3b eb b1 6f 3f
       0.04963104705070575 0.0038690180185928583
0007d0 05 06 6b fe ef 73 98 3f 00 ab dd eb 7a 47 af 3f
       0.023879766372152406 0.0610922253534536
0007e0 31 63 87 aa 2c 96 b6 3f 2b c7 49 26 c2 8a 99 bf
       0.08822898066808872 -0.024943383776594146
0007f0 e9 74 d2 f0 03 44 a6 bf 1b 79 15 7d 3a 56 b0 bf
       -0.04348766627047402 -0.06381574205213207

fc1.bias f8 [50]
000000 d1 f4 6b 2c 5b b8 b7 bf 69 ca 2c 00 85 cc a9 3f
       -0.09265680155290858 0.050388485213621
000010 e3 56 df 41 5a 71 b1 bf 8e da e7 5f 43 01 99 3f
       -0.06813587291921012 0.024418881157510834
000020 41 d5 86 10 6d de b3 bf b4 4e 26 aa 45 0e 91 bf
       -0.07761270192607574 -0.016656006345853583
000030 45 a8 9b f2 b5 7c 82 bf 2e 3f cc 16 be 19 b1 3f
       -0.00902692934637995 0.06679904991710536
000040 56 7b 2f e3 15 d2 b4 3f 40 50 0b 8c 92 19 ab 3f
       0.08133065029640582 0.05292947730563968
000050 c6 19 35 7a d0 56 ac 3f 9c f9 35 51 1c 12 a5 bf
       0.055349841039560796 -0.04115379802077543
000060 18 8c 53 ad 11 70 00 bf ab c2 9f 37 aa 39 b0 3f
       -3.135255762189859e-05 0.06337989671716097
000070 20 58 6c 7a 6c 1c b7 bf 96 27 68 7b 48 f0 99 bf
       -0.09027746189926278 -0.02533066991058027
000080 37 4c d1 a8 7f 9a a2 3f a3 97 f6 d0 00 73 b2 3f
       0.036334981305707385 0.0720673093952358
000090 bb d1 98 1e 47 21 b6 bf d6 82 be ed d4 6f b5 3f
       -0.08644527909274917 0.08373766712476124
0000a0 8f b8 50 83 5a 80 7a bf 90 c0 b4 cf 03 7b b4 bf
       -0.00647006374951621 -0.08000205822895823
0000b0 ae 85 4c bb f4 32 b6 bf d9 89 16 68 75 c4 aa 3f
       -0.08671502659537708 0.05228011031728714
0000c0 c2 10 8a 26 22 34 95 3f 66 17 43 dd 1a 48 62 bf
       0.020706685640576657 -0.00223164793905799
0000d0 8d 0a 54 86 a4 44 9c bf ad b7 8e e6 64 1a a2 3f
       -0.027605601023433613 0.03535762133047569
0000e0 50 0c 45 af 56 7a a3 3f 8e ba 71 53 42 07 bc bf
       0.0380427445366186 -0.10948576485837178
0000f0 06 64 ac d2 77 de 50 3f 5f ff 54 32 ab 88 b1 bf
       0.001029603018372295 -0.06849164942559359
000100 bf 50 98 80 c7 52 a6 3f ec b8 75 51 7d a4 9b bf
       0.043600305984143876 -0.02699466523829923
000110 e9 3c af 71 00 23 a8 bf 5e 64 75 5c 02 0a 9e 3f
       -0.0471420420432141 0.029335057156775306
000120 86 07 05 b7 0b b6 b0 3f 3c b8 8d 22 b9 03 93 bf
       0.06527779787304952 -0.01856889031790153
000130 7e 80 85 dd 8d c5 62 bf 7b e1 12 5f f6 ba ab bf
       -0.0022914667899130428 -0.05416078482216143
000140 60 75 3d ac 2f c1 b6 bf e7 38 66 0b 28 ea 90 bf
       -0.08888528781013383 -0.01651823587013093
000150 19 09 9f 35 3b c4 ba bf 78 7f e6 4c 34 91 b2 3f
       -0.10455675181495784 0.07252814176035638
000160 2f 71 6d de e8 3b b3 3f 70 bd ea 82 9a 7d b2 3f
       0.07513289862021531 0.07222905822958636
000170 ba 5e 51 e1 e4 85 a3 bf 6c 46 9e 93 42 2a ad bf
       -0.03813090563261086 -0.05696304370861757
000180 07 e0 6c b1 27 b9 a1 3f 6e e0 98 e1 54 fc b7 3f
       0.034615745933877 0.09369402415984648

fc2.weight f8 [1, 50]
000000 d0 85 e2 4f c7 04 85 3f 0c f4 1e 46 08 af a6 bf
       0.010263020635025294 -0.044304140624696314
000010 c2 30 05 4d ea 1b 79 bf 8c 77 8f 33 51 df 9a 3f
       -0.006130137670265325 0.026242512485502398
000020 ac d1 37 54 37 fd c0 bf 5b 0e 30 2f cd a1 b3 3f
       -0.13272754299363265 0.07668764497798845
000030 41 54 eb 9d bf 6f c1 bf 53 57 1f 23 bd 6d b8 bf
       -0.13622279368306248 -0.09542448146325215
000040 f5 04 10 47 b1 be 81 3f 7a 59 8f e0 b7 e6 a9 bf
       0.008664498311193184 -0.05058836570940435
000050 8a dc 88 12 a4 b9 ad 3f 5c 5a 6c b6 44 b5 b8 bf
       0.05805695272686602 -0.09651593640988082
000060 47 a4 de 76 bf ac a2 bf 27 da 91 b3 be 6e 93 3f
       -0.03647421194120475 0.018977145872179826
000070 b1 54 5d 52 6c a0 95 3f 15 c5 e4 1e 25 5e b4 bf
       0.021119778182158103 -0.07956153873671597
000080 e5 83 4a fe 98 c4 9d 3f eb ac 7b c0 33 a4 b2 3f
       0.029070272942252635 0.0728180260590993
000090 73 a3 6c 11 ad d7 b7 bf f5 75 eb 77 91 12 bc bf
       -0.0931347053089107 -0.10965832879761435
0000a0 ef 34 c6 3d 5e 67 ae bf 3b ec 76 b6 28 05 b4 bf
       -0.05938238624649183 -0.0782037206144403
0000b0 20 48 2f d4 f8 7d b6 bf 41 48 c8 25 df 13 a6 3f
       -0.08785967998781574 0.04312035881243093
0000c0 93 fc be 28 49 10 9e 3f df ac 32 26 54 07 bd 3f
       0.029359000312748917 0.11339307720725199
0000d0 cd 47 05 44 f3 55 77 bf 97 30 27 03 51 2b be bf
       -0.005697202927267453 -0.11784845664004916
0000e0 c6 95 2a c6 a1 6f b2 bf 6d 30 a1 77 3d 6f b9 3f
       -0.07201586807294466 0.09935363932271608
0000f0 c5 d5 51 fe 03 8b 89 bf ba e8 0c c1 66 d1 a8 bf
       -0.012472182463379231 -0.04847260576794228
000100 f5 98 d4 61 60 22 8c bf 4f 89 7e aa 17 44 a7 3f
       -0.01373744295649402 0.0454413791296867
000110 6b 27 8c 0e 84 fd 7d bf 78 aa f9 9a 84 ff b1 bf
       -0.007321849677063823 -0.07030514510703678
000120 44 35 88 af 28 11 c1 bf 62 1d 9c a1 3f b4 bc 3f
       -0.13333614893819334 0.11212537475159004
000130 fc d5 c7 03 6a 83 bd 3f 20 de 12 08 81 e2 b5 bf
       0.1152864703397753 -0.08548742720710623
000140 2c 64 6c f0 84 df b4 3f 01 41 44 7c 80 f5 ad 3f
       0.08153563375198364 0.05851365582396007
000150 b6 1e 1b 94 d1 44 b0 bf 50 c1 0d ba 0d 00 ba bf
       -0.06355008951060878 -0.10156331817939201
000160 c9 3c 31 52 06 c2 7d 3f f6 58 27 ab 02 cc 80 bf
       0.0072651144901804765 -0.008201619003483245
000170 bd aa ac 20 37 14 ab 3f 23 5a 2a 3d 93 c8 a4 bf
       0.05288860582216646 -0.040592766968235126
000180 78 2e d5 f4 b5 bf b3 bf 03 e9 c7 0c be ca ba 3f
       -0.07714402415620636 0.10465610324891732

fc2.bias f8 [1]
000000 4e e1 92 38 23 91 98 bf
       -0.023991155937183088
